data.pth (torch, 59896 bytes, 4 tensors)

l1.weight f4 [8, 1225]
0.017761637 -0.15326948 -0.047180686 -0.08168761 0.08525853 -0.15621081 -0.16360363 0.01677083
-0.13238299 0.17359444 -0.028250616 0.20739019 0.04619692 -0.10732161 0.08333243 0.16879065
0.15066162 0.0075598583 0.11202419 0.17906106 0.10441916 0.124027155 0.14611816 -0.025696108
0.28964862 0.08553111 0.059221696 0.18163486 -0.027591411 -0.05418065 0.25374576 0.46644124
-0.10853268 -0.18040505 0.35455555 0.12606354 0.17804393 0.038484134 0.25096276 0.028405761
0.03920262 0.13936056 0.15742728 0.005207651 0.0019639086 -0.210512 -0.0051445463 0.05263548
0.18689732 -0.34649324 -0.21767646 -0.042247202 0.2176057 0.005719517 0.24249873 -0.09702704
-0.10547748 0.18137965 -0.040364344 0.20951036 -0.02124185 0.03578567 -0.12467486 0.22336096
0.11315919 0.250451 0.18623357 0.2004799 -0.015679846 -0.052506085 -0.08428987 0.13295053
-0.0198507 -0.19793221 0.16180858 0.31674293 0.0930896 0.16085353 -0.07953252 0.11790206
0.09906182 0.16245803 -0.10396765 0.21635051 0.023263052 -0.1491389 0.0011259154 -0.02415421
0.07172266 -0.08446184 0.25088403 -0.12429181 0.29361922 0.16286893 0.21055989 0.06627455
0.15970881 0.11130919 -0.0075863064 -0.010203865 -0.13182363 0.14880812 0.11143672 -0.020546913
-0.21689332 0.08876608 0.11851184 0.23991077 -0.22297864 0.17351958 -0.09544731 0.013573882
-0.06002142 -0.30068433 0.2391438 -0.07704502 0.13281001 0.1140488 0.063475214 0.04898973
-0.20999064 -0.21634893 0.30906874 -0.11230859 0.13094221 -0.029034445 0.20573756 0.121626616
-0.013183535 0.26961395 0.16940749 -0.05838373 0.19701716 -0.033690467 -0.06666979 -0.113001235
0.19412535 0.2217692 0.18861468 0.08910862 0.11714291 -0.15129058 -0.024201144 0.22773674
0.11485741 -0.08495868 0.0671148 0.17815211 -0.12861581 0.19615856 -0.18829156 0.07495482
-0.23751739 -0.1709984 0.03582766 0.09754707 0.26240233 -0.21023856 0.16009742 0.15753329
-0.28506178 -0.12275831 0.12118817 -0.14926773 -0.18299781 0.20313208 0.1994178 0.13555945
-0.03141132 -0.23839143 -0.22773433 -0.091704145 -0.2426518 -0.21360096 -0.32884768 0.19764543
0.11198729 -0.23638712 -0.13181919 -0.29302284 0.05883421 -0.15824941 -0.2913405 -0.22368373
-0.20925176 0.0028655187 -0.03171987 0.12925702 0.09737469 0.17499894 -0.03501505 -0.15572247
0.16346848 0.04029019 0.23321457 -0.15741752 -0.24237785 0.19607458 0.073680714 -0.18997012
-0.11712485 0.049676966 0.12184738 0.14003314 0.25526017 0.2699454 -0.096225694 -0.15881908
-0.3387627 0.18701111 0.18030238 -0.217805 -0.03302603 -0.20915039 -0.03512658 -0.26581466
0.115975626 0.16426551 0.43155655 0.028574951 -0.10036802 0.22265586 -0.1442371 0.106849596
0.033985812 0.1157446 0.1208431 0.09100162 -0.08248771 0.101463564 0.19605967 0.36596486
-0.33137494 0.19503923 0.045712948 -0.22764914 0.25527218 0.31383756 -0.12696429 0.20748533
0.062355313 -0.1232368 -0.2554248 -0.28451902 -0.16217206 -0.12043199 -0.25611648 -0.14596526
-0.14960708 -0.13772346 0.02397452 -0.053121187 -0.012161347 0.060276866 0.120100826 -0.13532242
00000000: da80 913c adf2 1cbe 8940 41bd d54b a7bd
00000010: 069c ae3d baf5 1fbe b687 27be fb62 893c
00000020: 688f 07be bec2 313e d66d e7bc 185e 543e
00000030: fb38 3d3d 6fcb dbbd 31aa aa3d 75d7 2c3e
00000040: 0a47 1a3e b0b8 f73b f06c e53d c85b 373e
00000050: b6d9 d53d f301 fe3d 00a0 153e a580 d2bc
00000060: d34c 943e ef2a af3d 7392 723d 7dfe 393e
00000070: 6207 e2bc 87ec 5dbd f7ea 813e 63d1 ee3e
00000080: 6246 debd 1abc 38be 4e88 b53e cd16 013e
00000090: 2651 363e 8aa1 1d3d 317e 803e 33b3 e83c
000000a0: ed92 203d 89b4 0e3e 9e34 213e f1a4 aa3b
000000b0: ebb4 003b 7590 57be 9593 a8bb 4d98 573d
000000c0: 0362 3f3e 9067 b1be 94e6 5ebe 670b 2dbd
000000d0: 07d4 5e3e c96a bb3b 9651 783e 1db6 c6bd
000000e0: 9404 d8bd 96bb 393e 1555 25bd e289 563e
000000f0: 6303 aebc ff93 123d 8855 ffbd bcb8 643e
00000100: 01c0 e73d 1d3b 803e 03b4 3e3e 9a4a 4d3e
00000110: 0573 80bc 9f10 57bd 2ba0 acbd 2f24 083e
00000120: ef9d a2bc beae 4abe 26b1 253e 212c a23e
00000130: c3a5 be3d cab6 243e f2e1 a2bd a376 f13d
00000140: ece0 ca3d 665b 263e feec d4bd fd8a 5d3e
00000150: 2892 be3c deb7 18be 7493 933a 0ddf c5bc
00000160: 54e3 923d 54fa acbd df73 803e b48c febd
00000170: 4255 963e 1dc7 263e 039d 573e f4ba 873d
00000180: b58a 233e 13f6 e33d 8d96 f8bb 1d2e 27bc
00000190: c6fc 06be 2861 183e ef38 e43d 0052 a8bc
000001a0: 4819 5ebe feca b53d 56b6 f23d 2bab 753e
000001b0: 8354 64be 1eaf 313e e179 c3bd fd64 5e3c
000001c0: 05d9 75bd 4cf3 99be 1de2 743e c8c9 9dbd
000001d0: 59ff 073e 6b92 e93d 4bff 813d 75a9 483d
000001e0: c907 57be 938a 5dbe 423e 9e3e 0c02 e6bd
000001f0: b715 063e a5d9 edbc deac 523e 6017 f93d
00000200: c1ff 57bc d70a 8a3e 2879 2d3e c723 6fbd
00000210: debe 493e 04ff 09bd 2c8a 88bd 316d e7bd
00000220: ccc8 463e 7717 633e 3524 413e 957e b63d
00000230: 9fe8 ef3d ebeb 1abe 7a41 c6bc d233 693e
00000240: 5d3a eb3d d1fe adbd 7c73 893d 826d 363e
00000250: ddb3 03be cadd 483e 81cf 40be ea81 993d
00000260: c237 73be 341a 2fbe 06c0 123d c2c6 c73d
00000270: 9959 863e c748 57be 94f0 233e 6850 213e
00000280: 9ef3 91be b568 fbbd 8131 f83d a4d9 18be
00000290: c763 3bbe db01 503e 2e34 4c3e 19d0 0a3e
000002a0: 28a9 00bd e21c 74be 3033 69be 62cf bbbd
000002b0: b779 78be 36ba 5abe b95e a8be 9063 4a3e
000002c0: 9859 e53d 770f 72be 9cfb 06be 1707 96be
000002d0: 24fc 703d 220c 22be 952a 95be 590d 65be
000002e0: 1846 56be 6dcb 3b3b b2ec 01bd f45b 043e
000002f0: 626c c73d ec32 333e f16b 0fbd b675 1fbe
00000300: 4864 273e 5407 253d cdcf 6e3e 0f32 21be
00000310: e631 78be c6c7 483e eae5 963d 8787 42be
00000320: 27df efbd 137a 4b3d 1f8b f93d d964 0f3e
00000330: 76b1 823e 4936 8a3e fa11 c5bd 78a1 22be
00000340: 4e72 adbe d77f 3f3e 30a1 383e 4608 5fbe
00000350: 4d46 07bd 852b 56be e4e0 0fbd dc18 88be
00000360: a184 ed3d 3835 283e fbf4 dc3e 0416 ea3c
00000370: c08d cdbd e6ff 633e e4b2 13be f6d3 da3d
00000380: b534 0b3d 810b ed3d 967c f73d 0f5f ba3d
00000390: 51ef a8bd 21cc cf3d dec3 483e bf5f bb3e
000003a0: faa9 a9be 5db8 473e 803d 3b3d db1c 69be
000003b0: 09b3 823e 51af a03e ed02 02be 0977 543e
000003c0: 4968 7f3d 9363 fcbd 0ac7 82be 7aac 91be
000003d0: 6f10 26be 0ca5 f6bd b321 83be eb77 15be
000003e0: 9932 19be 6107 0dbe 3666 c43c 9a95 59bd
000003f0: 6340 47bc e0e4 763d 6cf7 f53d f691 0abe

l1.bias f4 [8]
0.5664859 0.68299735 1.0505008 0.20995826 0.2600154 0.4497708 0.43406913 0.30885866
00000000: 3805 113f ead8 2e3f cf76 863f 4cff 563e
00000010: bd20 853e 5c48 e63e 4f3e de3e b922 9e3e

l2.weight f4 [4, 8]
-1.0288479 -0.96665394 -0.8306525 0.75054973 0.9396972 1.140566 -0.8452051 1.015424
0.9433841 0.57712764 -1.3730186 0.7136587 0.47876108 -0.9375663 1.2759705 0.18488954
1.175849 1.1696758 1.0670848 -0.99709797 -0.99603236 -1.1709366 -1.0449066 -0.77320755
-1.4730182 -1.4202309 0.760447 -0.86624146 -0.6658998 1.0370322 1.1154656 -0.928289
00000000: 4ab1 83bf a276 77bf a4a5 54bf 0724 403f
00000010: ff8f 703f 11fe 913f 5d5f 58bf 6af9 813f
00000020: 9f81 713f a3be 133f 13bf afbf 56b2 363f
00000030: 2c20 f53e 5804 70bf 0053 a33f af53 3d3e
00000040: 3882 963f f0b7 953f 3c96 883f d041 7fbf
00000050: fafb 7ebf 40e1 95bf 80bf 85bf eef0 45bf
00000060: dc8b bcbf 20ca b5bf a8ac 423f 00c2 5dbf
00000070: 6978 2abf 79bd 843f 94c7 8e3f 59a4 6dbf

l2.bias f4 [4]
-0.122166306 -0.4991148 0.5050033 -0.009214369
00000000: 5432 fabd fa8b ffbe e547 013f ddf7 16bc
