train/data.pth (torch, 36728 bytes, 4 tensors)

l1.weight f4 [4, 1114]
00000000: d186 24bc e181 89be ba53 30be 1bcc 62bb
00000010: 90ff 48bd b08b c73c c1c6 7ebe 6eaf 853d
00000020: 476b 88bd 088c bd3d 76e6 bebc 9eaf fcbe
00000030: 36eb 053c 101e 04bd 3790 9cbd 0004 67bd
00000040: d312 a2be 8484 6fbc 4599 9cbe 00b0 e8be
00000050: 0dab cbbc f20e 1dbf 786f 433e 14dc 89be
00000060: a6bc a6be 8bf7 f3bc e825 c6be daa9 a63c
00000070: 9687 ebbb 45de 9f3e e589 29bf b31e b33e
00000080: 8c1d cd3e 848d f0bd b1fa e1bc fe31 d2be
00000090: aa26 393c e690 02bf 8964 293e 062d 8cbd
000000a0: 2f8b 72be b203 a0be ff11 703e 8a3e 50bf
000000b0: ff61 073f fcdb b83e 7253 10be f824 0abe
000000c0: cef5 253f 07a5 473e 8b8c 3e3f 35bd 69bd
000000d0: aadb 323f 8d15 cd3e 481d 003f 0c9c 19be
000000e0: 6e5c c03e 0fd6 923e f68c f43b 7f0a bfbe
000000f0: cd5b d2be e602 11bd ffdf a4bd 9934 79bc
00000100: 1d50 c4be 286e be3e 3ecf 823e 6d23 8cbe
00000110: 2dbb 8abe a839 103e a280 d53e 074d 243e
00000120: 057a 04bf a268 be3c 7c6d 86be 3acd 1e3e
00000130: a3b1 c0be 926a d2bc 9cba 99be edff de3e
00000140: 42ee 5f3e 5aa6 b63e c9b6 2abe ae89 fe3d
00000150: 7d85 963e d952 903e f71c 91be d321 11bf
00000160: 4a41 95be 15f2 5a3e 04be aabe 5697 07bf
00000170: d1a2 96bd b441 d0bd 2c1f 523e 1859 433e
00000180: 036c 5d3e bb2b ccbe cfbc 9ebe fba2 c53b
00000190: 8130 a9be 861b 423e 22b4 e23e 1b03 9bbe
000001a0: 8d4e 083f aee0 0c3e b77a 1e3e 5171 f93e
000001b0: b3d6 473e 3496 a03b dd8c b13c 1a9e c3be
000001c0: fd42 953e 09a9 e6be d11b 16bf 8544 db3d
000001d0: 4b24 983e 3e89 193e b3b8 24bd bd28 663e
000001e0: 7603 4bbf fe47 93bd 9cf7 583e e5db 05bf
000001f0: 9ac4 cbbe c1ca 4a3e 8e82 a33e 2e87 1dbe
00000200: a610 7cbe 8f3d ebbc 70b7 d43e 4f0e 453e
00000210: d0f1 bbbe 1b65 d3bd 31d4 6abe 87e5 25bd
00000220: 3427 cdbc 3f01 b9bd 2bbe f4bc 730d c4be
00000230: 9bd3 4ebe 00c4 993e 75b8 723e 87ab 973e
00000240: a431 efbd 53ae 9c3e 5bf2 c1bd 3531 1abe
00000250: e6d7 b0be 76ab 2f3f 8991 33be 1395 f2be
00000260: 5040 17bf fb16 18be d7cb 18bd 537b f03e
00000270: 24b4 abbe 3523 4cbe ce2e febe 68c3 41be
00000280: 2ea5 9d3e 3078 bfbe 5c55 0bbe 7707 aabe
00000290: 4f02 ff3e cc72 13bf 5176 8abe 5f0d 13bf
000002a0: 34d6 64bd 19bc d63e 9673 2c3f e9b3 b03e
000002b0: cd03 2bbe 71ff 2b3f 052f ac3e a750 8c3e
000002c0: 5da2 9bbe 992b 1f3e df56 ccbb 1ccb 99be
000002d0: 76f4 fc3b 08c7 bcbd 8e1d 89be abd3 e1be
000002e0: b858 1dbe a7dd f6be 0e58 3cbe 1c66 bbbe
000002f0: a2a6 4fbc 794e 42be 48ae 0fbe 0e28 c9be
00000300: b174 06bf 7c2c 343e 4747 2a3f f8b6 413f
00000310: e430 29bf 6f67 04be 9c72 003f eb88 01be
00000320: 2e12 e83e ea0e 3f3e b45c 2e3f 6f65 adbe
00000330: ee04 eebe fbda 0bbf 0a72 843e 09e3 54be
00000340: 3f54 663e 7b69 70be 45cb 623e 24d2 22be
00000350: 56ac 3fbd 042c 413e af2a babc c3c2 29be
00000360: de1b dd3d 6a9b b3be 6abc 66bf 252d 2d3c
00000370: 61e7 84be 0da5 5b3e f4be a43e 6a94 01bf
00000380: d097 84be ab1d 34be d353 363f 6c0b 77be
00000390: 771d ce3e 3f32 113f 6671 36bf 726e 81bc
000003a0: 7df4 183f 2f1e bfbe 9975 193f ac4f c5bc
000003b0: b84c cc3d 90c1 653e ff27 883b 4e81 cc3e
000003c0: adf7 88bc b602 333e 5dd7 863e 04c8 40be
000003d0: 03fb 1cbe fcca 6f3e 6c11 fdbe 46c6 42bd
000003e0: 3bcc cbbe 4121 4a3e a952 fd3e 5b49 063f
000003f0: 2c6f df3d 44b1 fa3e e3f6 533e f46a 83be
-0.010041908 -0.26856902 -0.17219439 -0.003460652 -0.04907185 0.0243586 -0.24880506 0.06527601
-0.066610865 0.092552245 -0.023303252 -0.49352735 0.008173754 -0.032255232 -0.07644694 -0.0564003
-0.31654987 -0.0146189965 -0.30585685 -0.45446777 -0.024861837 -0.6135093 0.1908549 -0.2692572
-0.32565802 -0.029781124 -0.38700795 0.020344663 -0.007187794 0.31224266 -0.66226035 0.3498436
0.40061605 -0.11745742 -0.02758536 -0.41053766 0.011300722 -0.5100235 0.16542257 -0.06844525
-0.23685907 -0.3125282 0.23444365 -0.8134543 0.52883905 0.36105335 -0.14094332 -0.13490665
0.64828193 0.19496547 0.744332 -0.057065208 0.6986643 0.40055504 0.5004468 -0.15000933
0.37570518 0.2867894 0.007463093 -0.37312695 -0.41085663 -0.035403155 -0.08050536 -0.015210294
-0.38342372 0.37193418 0.25548738 -0.27370778 -0.2709593 0.14084494 0.41699702 0.16045009
-0.5174869 0.023243252 -0.26255405 0.15507975 -0.37635526 -0.025685582 -0.30025184 0.4355463
0.21868232 0.3567379 -0.1667129 0.12428604 0.29398718 0.28188208 -0.2834241 -0.56692237
-0.29151374 0.2138141 -0.33348095 -0.52965295 -0.073552735 -0.10168782 0.20519704 0.19076955
0.21623234 -0.39877114 -0.31003425 0.0060313917 -0.33044818 0.18955812 0.44278055 -0.30275807
0.5324486 0.13757583 0.154765 0.48719266 0.19515495 0.004900718 0.021673614 -0.3820656
0.2915267 -0.4505084 -0.58636194 0.107064284 0.2971519 0.1499376 -0.040215205 0.22476478
-0.79302156 -0.07191466 0.21188205 -0.5228866 -0.39798433 0.19803907 0.31935543 -0.15383598
-0.24615726 -0.028715877 0.41546202 0.1924374 -0.36707926 -0.10322019 -0.22932507 -0.040502097
-0.025043108 -0.09033441 -0.029875835 -0.3829151 -0.20197909 0.3003235 0.23703177 0.29623052
-0.1167939 0.3060175 -0.09470054 -0.15057833 -0.34539717 0.68621004 -0.17535986 -0.4737936
-0.5908251 -0.14852516 -0.03730377 0.4696909 -0.33535874 -0.19935305 -0.49645084 -0.18922198
0.30790085 -0.37396383 -0.13606781 -0.3320882 0.4980645 -0.5759704 -0.27043393 -0.5744228
-0.055868343 0.41940382 0.6736387 0.3451226 -0.16700669 0.6718665 0.33629623 0.27405283
-0.3039731 0.15543975 -0.006235942 -0.30037773 0.0077195717 -0.0921765 -0.2678036 -0.44106802
-0.15365875 -0.48215982 -0.18392965 -0.3660134 -0.012674006 -0.18975247 -0.14031327 -0.39288372
-0.52521807 0.17595094 0.6651501 0.75669813 -0.66090226 -0.12930082 0.5017488 -0.12649886
0.4532637 0.18658033 0.68110204 -0.3386645 -0.46488136 -0.5463101 0.25868255 -0.20789732
0.22493075 -0.23477738 0.22147854 -0.15900475 -0.04679521 0.18864447 -0.022725431 -0.16578202
0.10796331 -0.3507951 -0.9013125 0.010569845 -0.25957778 0.2144968 0.32176936 -0.50617087
-0.25897074 -0.17589442 0.71221656 -0.24125451 0.40256855 0.56717294 -0.7126678 -0.015799735
0.5974806 -0.37327716 0.59945065 -0.024085842 0.099755704 0.2243712 0.0041551585 0.39942402
-0.016719664 0.17481503 0.26336184 -0.188263 -0.15330128 0.23417276 -0.49427354 -0.04755237
-0.39804253 0.19739248 0.49477127 0.5245568 0.10909876 0.48963368 0.20699649 -0.25667536

l1.bias f4 [4]
00000000: a304 8b3f 6c62 3f3f 3705 493f c68c b33f
1.086079 0.74759555 0.7852358 1.4027336

l2.weight f4 [4, 4]
00000000: 5383 d13f 7ca8 873f b8ea edbf 4ab7 d5bf
00000010: 8bf6 e4bf 33a5 973f 0211 a43f 4b51 bbbf
00000020: 3185 0540 3c0d bfbf 7327 e7bf c4b5 c53f
00000030: 1f41 18c0 3e3c 03c0 ce32 b53f fd91 a63f
1.6368202 1.0598292 -1.8587255 -1.669656 -1.7887739 1.184729 1.281769 -1.4634184
2.0862544 -1.4925914 -1.8058914 1.5446095 -2.3789747 -2.050552 1.4156129 1.3013302

l2.bias f4 [4]
00000000: eeba f8be 7c56 08be aadf bf3d 0f95 0dbf
-0.48580116 -0.13314241 0.093688324 -0.5530557
