train/data.pth (torch, 58808 bytes, 4 tensors)

l1.weight f4 [8, 1204]
000000 3f 34 43 bd 9f 92 ab 3e da 18 e5 3d 9f f1 05 3e
       -0.047657248 0.335103 0.11186381 0.13080452
000010 36 35 38 be 0e 14 80 3e 3a dd 86 3e fc 72 a5 3d
       -0.17989048 0.250153 0.26340657 0.08078572
000020 a9 fa 66 3e 9b fb 13 bd f8 ad e1 3d 60 fc 8b bc
       0.22556557 -0.03612862 0.1101951 -0.017088115
000030 73 e6 91 bc 15 06 64 3e 5f 0a 18 bb c7 da 37 be
       -0.017810082 0.22267945 -0.002319954 -0.1795455
000040 94 cf 06 be ef 9d d9 3d 96 36 1a 3e fa 0b 02 be
       -0.13165122 0.106258266 0.15059885 -0.12699881
000050 a7 cc a8 bc de e4 51 be 2e c8 47 bd 71 4c aa bc
       -0.020605398 -0.20497462 -0.04877489 -0.020788403
000060 09 66 87 be 6a 79 42 bd 08 2b e8 bc 28 ed 4f be
       -0.26445034 -0.04747907 -0.028340831 -0.20305312
000070 36 e9 bd 3d 98 85 e0 3d 85 c4 cc 3e 6d ad 32 bf
       0.09272997 0.10962981 0.39993683 -0.69795877
000080 4a f6 7a 3e 4f 3c df 3d b0 e3 95 be 46 90 39 be
       0.24508014 0.10900175 -0.29275274 -0.18121442
000090 13 88 22 be d5 95 d7 bd 92 0e 94 be 8e d2 42 3e
       -0.1587222 -0.10526625 -0.28917366 0.19025633
0000a0 39 b6 78 bd 7e 33 3e be 5f 78 3e be 80 a7 0d 3e
       -0.060720656 -0.1857433 -0.18600605 0.13833427
0000b0 b3 97 ab 3d 82 c5 5b 3e aa 63 5d 3e 38 98 a7 bd
       0.08378544 0.21462062 0.2162005 -0.0818333
0000c0 2a 01 89 be c9 d9 e0 3e 90 1f ce 3e ef 43 d6 3d
       -0.267587 0.43916157 0.40258455 0.10462176
0000d0 70 18 7b be 8e 01 6a 3e b9 10 c0 3e 20 41 68 3e
       -0.24521041 0.22852156 0.37512758 0.22681093
0000e0 c8 f3 d6 bc 54 1f 12 3e c0 0c c5 bb a9 3c 33 3e
       -0.02623929 0.14269763 -0.006013483 0.17503609
0000f0 b3 e6 a2 bb 0d b9 30 3e ba 45 87 be e1 74 d3 bd
       -0.004971349 0.17258091 -0.26420385 -0.10325027
000100 a6 e9 99 be 3a e1 33 be 2d 65 71 be 11 23 87 3e
       -0.30061072 -0.17566386 -0.23573752 0.2639394
000110 8c 29 a4 3d 27 ee 20 3e a2 6c 37 bd 0e a5 97 3d
       0.08015737 0.15715848 -0.044781335 0.074045286
000120 76 37 5f 3e fc c0 e3 3b 10 17 c8 be bb cd 28 3c
       0.217985 0.0069504958 -0.39080095 0.010302956
000130 b0 09 69 3c 31 c9 8e 3d c7 2c 96 bb 2c eb f7 bc
       0.014223501 0.06971968 -0.0045829746 -0.030263506
000140 e9 a9 1d be f0 36 62 3e 15 34 b6 bc 93 bd 4e 3e
       -0.15396847 0.2209127 -0.022241632 0.20189504
000150 99 37 24 3e 67 c6 b0 3d e4 e1 1c 3e 50 ab d5 bc
       0.16036834 0.08631592 0.15320545 -0.026082665
000160 6b 9e 10 3e 8a df 36 be 20 50 42 3e e7 91 da bd
       0.14122932 -0.17858711 0.18975878 -0.1067236
000170 7b 89 d6 bd 93 7c 85 be e7 db df bc d6 db 53 be
       -0.10475441 -0.26071605 -0.027326537 -0.2068933
000180 b7 66 2f bd a2 df c0 3d 21 c8 f6 3d a3 1c 79 3e
       -0.042822566 0.094176546 0.1204989 0.2432733
000190 51 47 8f 3c 96 fe 4e 3e f0 62 8c 3e d1 2e 04 bd
       0.017490061 0.20214304 0.27419233 -0.03227121
0001a0 bb aa 0c be 00 89 da bd ab cc 91 3e 9a 7d e2 3c
       -0.13737004 -0.10670662 0.28476462 0.027647782
0001b0 c9 d5 37 3e b5 a6 a6 3d 79 3b bf 3d 3b af 98 3e
       0.17952646 0.081372656 0.093375154 0.2982119
0001c0 3a f4 54 bd 07 1e f6 3d 08 7b 6a 3c e6 ad 8e 3b
       -0.051990725 0.12017446 0.0143115595 0.0043542264
0001d0 9d c8 34 bd 6e ee 08 bd 73 2c a7 3e f1 12 7c 3e
       -0.044136632 -0.03343051 0.326511 0.246166
0001e0 9a 79 36 be 03 96 21 bd 3a c7 44 be bd d2 d7 3b
       -0.17819825 -0.039449703 -0.19216624 0.0065864013
0001f0 ed f1 9e bd f2 e0 b1 bd dd 21 dc 3d 23 df 8e be
       -0.077609874 -0.08685483 0.107486464 -0.27904615
000200 8e 70 41 be ad da e9 3d 06 59 da 3c 00 f0 fa 3d
       -0.18890592 0.11418662 0.026653778 0.122528076
000210 9c 4f 30 3e ba 99 ff 3d 85 fd 18 be 16 2f e5 bd
       0.17217869 0.12480493 -0.1494046 -0.111906216
000220 c6 e3 4d be c1 25 86 bd 2e 2b 28 be 7f 14 7d 3e
       -0.2010642 -0.0655017 -0.16422722 0.2471485
000230 b8 d1 0c 3e 7d e8 06 be 76 4a a2 3c 8f 17 3d 3e
       0.13751876 -0.13174625 0.019810896 0.18466018
000240 1a a0 16 bc ca d1 25 be 46 bd 4a 3e 34 d4 03 bc
       -0.009193445 -0.1619331 0.19798765 -0.008046199
000250 3c 58 57 3e 3d 9c 2d be 94 ed 69 3e 0e d4 3b 3e
       0.21029752 -0.16954131 0.22844535 0.18342611
000260 91 f1 24 bd bd 4b 88 3d 8b 7a 56 be 36 e1 b7 3e
       -0.04026944 0.06655071 -0.20945184 0.3591401
000270 13 d1 4d be ab 19 b1 bd 9c 3d b0 3e 67 e4 5b 3e
       -0.20099287 -0.08647474 0.34422004 0.21473847
000280 37 59 01 be ce 4a 2e 3e de 7c 2b 3e ab 7e c2 bd
       -0.12631689 0.17020723 0.16746852 -0.09496816
000290 8f fd 4a be af 80 70 bd f5 2c e1 bc 7d 79 7d 3e
       -0.19823287 -0.058716472 -0.027487257 0.24753375
0002a0 a3 fa f5 3e 2b 5f 71 3e bd 56 81 3e c8 6f b5 3e
       0.48042783 0.2357146 0.2526149 0.35436845
0002b0 aa 83 bb 3e c9 4c 03 bd 24 ac ea bd dd 48 57 3e
       0.3662389 -0.03205565 -0.114586145 0.21023889
0002c0 13 2d 82 3e dd 9d f1 3e 96 cb 0a 3e 87 b2 43 3e
       0.25425014 0.47190753 0.13554224 0.19111072
0002d0 f7 f8 a3 3e af 42 3a 3e 77 e0 0a 3e 12 33 3d 3e
       0.32025883 0.181895 0.13562189 0.18476513
0002e0 48 28 38 bc 65 06 42 3c 7d ff dd bc be 3c d6 bc
       -0.011240073 0.011842345 -0.027099365 -0.026152011
0002f0 6e c8 2a 3e 63 6c 87 3e 62 eb 18 bd 14 d8 5c bd
       0.1667802 0.2644988 -0.037333854 -0.053917006
000300 e5 8d a3 be d4 db 8e 3e 05 84 a3 3e f1 0a 6a be
       -0.31944194 0.2790209 0.3193666 -0.22855736
000310 11 27 af bc f7 9b 4b 3e 6b 75 e5 3d 85 1e e0 3d
       -0.021380933 0.19883715 0.11204036 0.10943321
000320 93 24 b5 bc 85 8c 9a bc 5c 83 92 be f0 2d 07 be
       -0.022112167 -0.018865833 -0.28615844 -0.13201118
000330 7c 8c 43 bc 77 95 9b 3e 51 95 c0 3e 1e 6e 1a be
       -0.01193535 0.3038747 0.3761392 -0.15081069
000340 d4 35 5a be 01 7a 51 3e d1 a7 ee 3d 38 ab 7e 3e
       -0.21309596 0.20456697 0.11653102 0.24870002
000350 82 7a 87 bc 0b c4 90 3e f5 d4 d3 bd 60 11 a3 bd
       -0.016537908 0.2827457 -0.10343353 -0.079622984
000360 b4 64 fd be 65 00 1b 3c f2 2f 02 3e 4f 0c 97 3c
       -0.49490893 0.009460543 0.12713602 0.018438486
000370 3d 47 2b 3e 84 e3 ba 3d 84 fc 42 3d 42 07 8f bc
       0.16726394 0.091254264 0.0476041 -0.017459515
000380 8a bd 2d be d2 1f 0e be 0e ce f8 3d 29 18 0b 3c
       -0.16966835 -0.13879326 0.12148677 0.008489647
000390 10 90 84 be 0d 8c a0 be 2b fa ff 3e b4 95 8f be
       -0.2589116 -0.3135685 0.4999555 -0.28043902
0003a0 33 c6 e9 bc d1 c4 3f 3e 7b d3 81 be 3d f1 cb be
       -0.028536892 0.18727423 -0.2535666 -0.39832488
0003b0 46 35 b8 3e f8 90 92 be f9 ce 5b 3d c4 ae 2b 3e
       0.35978144 -0.28626227 0.05366418 0.16765887
0003c0 c1 df 79 3e b5 a6 91 3e 75 70 0f 3e 68 87 af 3e
       0.24401762 0.284475 0.14007743 0.34282994
0003d0 d0 35 50 3e fc 85 3c 3e 37 0c 59 3e d4 2d 00 bc
       0.20333028 0.18410486 0.21196066 -0.007823426
0003e0 a3 22 17 3e 02 38 1d 3e a4 d4 84 3e 5b 23 cd bb
       0.14759307 0.15353397 0.25943482 -0.006260318
0003f0 93 73 48 3e 4a bc e1 3d b8 53 11 ba c9 5b 18 3e
       0.19575338 0.110222414 -0.0005543786 0.14878763

l1.bias f4 [8]
000000 0c f5 c5 3e 41 50 db 3e 4c fe ba 3e 75 17 63 3f
       0.38663518 0.42834666 0.36522138 0.8870767
000010 10 f1 5d 3f ae 8b 44 3f ae 76 da 3e 15 f3 83 3e
       0.8669596 0.76775634 0.4266867 0.25771394

l2.weight f4 [4, 8]
000000 f5 0e 58 3f b9 89 68 3f 55 15 28 3d e5 98 3b bf
       0.8439782 0.9083515 0.04103597 -0.73280174
000010 64 34 45 3f ab f4 80 bf bc 46 87 bf 01 56 8b 3e
       0.77033067 -1.0074667 -1.0568461 0.27214053
000020 65 4f 78 bf 51 e1 7c bf b8 f9 85 3f 15 21 15 bf
       -0.96996146 -0.98781306 1.0466833 -0.58253604
000030 11 3f 84 bf f3 34 61 bf 83 ba 95 3f 01 74 80 3f
       -1.0331746 -0.8797142 1.1697544 1.0035402
000040 28 86 ab bf 0e 09 96 bf 76 92 e9 be a0 e5 9b 3f
       -1.3400316 -1.1721513 -0.45619553 1.2179451
000050 b9 25 94 3f 4c 33 a7 3f e3 72 8b bf 4d db 5f bf
       1.1574012 1.306253 -1.0894436 -0.87444
000060 2f 57 63 3f 0c fd 62 3f 53 0f ad bf 65 1b 2b 3f
       0.88804907 0.8866737 -1.3520302 0.66838676
000070 3d f5 cd bf b7 a8 ff 3e 32 cd 3c 3f 1f 6d 85 bf
       -1.6090466 0.49933407 0.73750603 -1.0423926

l2.bias f4 [4]
000000 9a b7 10 bf 22 96 e6 3e 7a 4b 0a 3f eb d5 d0 be
       -0.56530154 0.45036417 0.5402142 -0.40788206
