train/data.pth (torch, 59320 bytes, 4 tensors)

l1.weight f4 [8, 1214]
0.06653751 -0.21092983 -0.034590118 -0.13529944 0.17535874 -0.025567502 -0.22929269 0.05298169
-0.12636341 0.33358887 0.012303366 0.25683334 0.039367396 -0.06602435 0.060087148 0.22236595
-0.00475413 0.010636657 0.10354337 0.2307157 0.12475478 0.23470458 0.16105357 0.14829308
0.3304562 0.0905816 0.08269616 0.26469547 -0.002565132 -0.0192291 0.3995695 0.5873862
0.14731294 0.08813279 0.46378908 0.20866938 0.23131068 0.113113545 0.16949804 0.23191811
0.089043416 0.23334332 0.1015698 0.12097089 -0.055142272 0.20127279 0.21194126 0.074764684
0.31355995 0.31728327 -0.19133942 0.09475203 0.5919718 0.0070106657 0.32446516 0.3292133
0.18326963 0.31843457 -0.06475816 0.37959018 0.0980648 0.052571263 -0.15308315 0.09895127
0.124505386 0.41837654 0.3348568 0.16404285 -0.076365374 0.07361177 -0.095011234 0.22938365
0.046266984 0.15862039 0.2386556 0.38382062 0.15802303 0.0752791 0.09486657 0.07045228
0.22550265 0.16509813 0.12413566 0.23499745 0.36086056 -0.15775691 0.054481037 0.13284291
0.2527142 -0.10495005 0.31285068 -0.13987528 0.25772154 0.14337116 0.18371838 0.109107375
0.25989234 0.16137478 0.09161851 0.069397785 -0.23980539 0.10577211 0.08699344 -0.0059667826
-0.20937169 0.08964459 0.23445225 0.22161588 0.19986406 -0.0067769634 0.32030687 0.16679014
0.09083542 0.21825376 0.20843826 -0.035577293 0.116488874 0.13532855 0.26453334 -0.14950836
-0.24051265 0.06527703 0.32663473 0.09847486 0.16066593 0.12374487 0.13396657 0.17812204
0.0956441 0.24107571 0.20474961 0.09076294 0.22667634 0.048077982 -0.07138507 -0.14933953
0.2008612 0.24541712 0.21347027 0.065327466 -0.0022005653 -0.12152065 -0.055177353 0.28401494
0.121689074 -0.13530725 0.11074191 0.17609943 0.14864841 0.232025 0.13559864 0.1308664
0.12792177 0.117109 0.11136763 0.09791999 0.38715294 0.28819823 0.21354443 0.22607706
-0.29704985 -0.07396926 0.21644714 0.1591402 -0.1647468 0.1825683 0.22438262 0.13820614
0.2431455 -0.2548748 -0.22022074 -0.1063897 0.18141583 -0.2662913 -0.09866094 0.18256873
0.14640562 0.12933522 0.19936109 -0.05147886 0.28260058 -0.13008799 0.17590758 0.1100154
0.07823697 -0.082296886 0.11580156 0.18099228 0.08404466 0.22193782 0.013893933 -0.121460654
0.19237107 0.078124285 0.2153017 -0.20138426 -0.2412422 0.19793613 0.11932114 -0.15129332
-0.080978096 0.14030972 0.18700807 0.06818214 0.35190496 0.21413302 0.15199144 0.2988598
0.27640596 0.115918465 0.26499793 0.091997206 -0.15287507 0.1213396 0.18593973 0.21021082
0.104616486 0.14267191 0.541433 0.21242194 -0.0730738 0.2670574 -0.01190531 0.3472741
0.07457797 0.17635842 0.17110853 0.19709596 -0.08158219 0.17901266 0.31779692 0.41933325
-0.09736706 0.21812496 0.14501491 0.09861978 0.2360995 0.43213105 -0.063921474 0.4632698
0.20037566 0.1419369 0.16560161 -0.2768682 -0.05802764 0.2025006 -0.12890682 0.11174736
0.21960352 0.060318023 0.23738267 -0.057536103 0.33491597 0.19043654 0.19344772 0.0045626257
00000000: d144 883d fdfd 57be 5eae 0dbd f08b 0abe
00000010: 3e91 333e f072 d1bc b4cb 6abe 5403 593d
00000020: 6965 01be 29cc aa3e 0f94 493c a97f 833e
00000030: b53f 213d c637 87bd f11d 763d e6b3 633e
00000040: 88c8 9bbb 5f45 2e3c 8c0e d43d bd40 6c3e
00000050: 6f7f ff3d 6656 703e 3aeb 243e 24da 173e
00000060: 8e31 a93e d982 b93d 9b5c a93d 2a86 873e
00000070: c61b 28bb 5886 9dbc 6094 cc3e f15e 163f
00000080: 34d9 163e f77e b43d c375 ed3e 6dad 553e
00000090: b5dc 6c3e 13a8 e73d e590 2d3e f17b 6d3e
000000a0: 655c b63d 8df1 6e3e d403 d03d 96bf f73d
000000b0: dddc 61bd 741a 4e3e 2107 593e 3a1e 993d
000000c0: ee8a a03e f472 a23e 7bee 43be 5a0d c23d
000000d0: 778b 173f bab9 e53b 4c20 a63e a58e a83e
000000e0: 09ab 3b3e db09 a33e ed9f 84bd a559 c23e
000000f0: 33d6 c83d f754 573d d4c1 1cbe f7a6 ca3d
00000100: aefc fe3d 7335 d63e 5a72 ab3e d9fa 273e
00000110: 7365 9cbd c5c1 963d 4095 c2bd 8ce3 6a3e
00000120: 7382 3d3d 626d 223e 2262 743e 2384 c43e
00000130: cad0 213e ee2b 9a3d 6749 c23d 4949 903d
00000140: 2bea 663e 7c0f 293e d63a fe3d 2ca3 703e
00000150: b7c2 b83e 078b 21be 8227 5f3d f907 083e
00000160: c163 813e 0df0 d6bd f72d a03e 773b 0fbe
00000170: 14f4 833e e4cf 123e ac20 3c3e b073 df3d
00000180: 9c10 853e 6e3f 253e 7ca2 bb3d 6d20 8e3d
00000190: 8b8f 75be 0c9f d83d 9e29 b23d 0085 c3bb
000001a0: 8865 56be 9597 b73d 4014 703e 46ef 623e
000001b0: 2aa9 4c3e 4a11 debb 43ff a33e 09cb 2a3e
000001c0: ec07 ba3d ea7d 5f3e d770 553e 7fb9 11bd
000001d0: b891 ee3d 9193 0a3e ea70 873e b818 19be
000001e0: f348 76be f7af 853d ab3c a73e 30ad c93d
000001f0: 9c85 243e f36d fd3d 882e 093e a065 363e
00000200: 0ee1 c33d 8ddc 763e e2a9 513e ece1 b93d
00000210: d81d 683e 6bed 443d 5632 92bd 76ec 18be
00000220: 8fae 4d3e a04e 7b3e f397 5a3e 68ca 853d
00000230: 5c37 10bb d2df f8bd a601 62bd 686a 913e
00000240: 1f38 f93d fc8d 0abe a8cc e23d 6953 343e
00000250: 4a37 183e f697 6d3e 5fda 0a3e d701 063e
00000260: edfd 023e d8d6 ef3d b614 e43d 478a c83d
00000270: e938 c63e b88e 933e 64ab 5a3e bf80 673e
00000280: eb16 98be 327d 97bd 52a4 5d3e a6f5 223e
00000290: 63b3 28be 2ff3 3a3e 8fc4 653e e985 0d3e
000002a0: 22fb 783e f37e 82be 8c81 61be d8e2 d9bd
000002b0: 12c5 393e 5557 88be bf0e cabd 4cf3 3a3e
000002c0: 5beb 153e 7470 043e 5025 4c3e 7fdb 52bd
000002d0: 06b1 903e c935 05be 1e21 343e c14f e13d
000002e0: b43a a03d 458b a8bd 5e29 ed3d 0a56 393e
000002f0: 9b1f ac3d ab43 633e 61a3 633c 5dc0 f8bd
00000300: ecfc 443e a0ff 9f3d 0d78 5c3e ad37 4ebe
00000310: 3208 77be c5af 4a3e a45e f43d a3ec 1abe
00000320: d8d7 a5bd 5aad 0f3e 0b7f 3f3e 14a3 8b3d
00000330: e32c b43e b045 5b3e a5a3 1b3e 2704 993e
00000340: 1585 8d3e a966 ed3d cfad 873e 0869 bc3d
00000350: 488b 1cbe e580 f83d fc66 3e3e 8141 573e
00000360: 2b41 d63d 9618 123e 5a9b 0a3f 2385 593e
00000370: b7a7 95bd bfbb 883e 7d0e 43bc e9cd b13e
00000380: 56bc 983d 4d97 343e 1337 2f3e 86d3 493e
00000390: 9014 a7bd 184f 373e 47b6 a23e d9b2 d63e
000003a0: 6268 c7bd 265c 5f3e ca7e 143e 2bf9 c93d
000003b0: 11c4 713e 4840 dd3e 43e9 82bd b331 ed3e
000003c0: 472f 4d3e e857 113e 7893 293e abc1 8dbe
000003d0: 64ae 6dbd 515c 4f3e 2600 04be cddb e43d
000003e0: bfdf 603e 0810 773d 7114 733e faaa 6bbd
000003f0: 1b7a ab3e cc01 433e 2917 463e 1482 953b

l1.bias f4 [8]
0.6531866 0.24394783 0.85156107 0.24867801 0.42812893 0.9728703 0.37736967 0.33155364
00000000: 3d37 273f 76cd 793e e8ff 593f 73a5 7e3e
00000010: b733 db3e 070e 793f 9936 c13e 66c1 a93e

l2.weight f4 [4, 8]
0.67201436 -1.0789909 -1.0400345 -1.060656 0.8742114 -0.84139663 0.9760003 0.6171307
0.42252666 1.1117437 0.40423572 1.1012555 -1.2366004 -1.2085952 -0.7863612 0.94480836
0.92704535 -1.3404545 1.1518658 -1.434225 -1.3782394 1.4206942 -0.53049994 -1.0720912
-1.1126641 0.98869574 -0.6999493 1.1012369 1.0735236 0.89491284 -0.7837779 -0.9495623
00000000: 2209 2c3f 601c 8abf da1f 85bf 93c3 87bf
00000010: 51cc 5f3f c565 57bf 28db 793f 47fc 1d3f
00000020: 6a55 d83e 9e4d 8e3f fcf7 ce3e f1f5 8c3f
00000030: ec48 9ebf 3fb3 9abf f84e 49bf f6de 713f
00000040: d852 6d3f 0394 abbf 5770 933f af94 b7bf
00000050: 266a b0bf 4fd9 b53f d8ce 07bf 493a 89bf
00000060: c76b 8ebf 2a1b 7d3f e12f 33bf 55f5 8c3f
00000070: 3969 893f 0219 653f aba5 48bf 8416 73bf

l2.bias f4 [4]
-0.070744246 -0.10174224 0.4361401 -0.10815224
00000000: 5ce2 90bd 3c5e d0bd c14d df3e ec7e ddbd
