train/data.pth (torch, 60344 bytes, 4 tensors)

l1.weight f4 [8, 1236]
0	0x3d870bec	0.06594071
1	0xbd375caa	-0.044766106
2	0xbd917a45	-0.07103399
3	0xbddbe94d	-0.10737858
4	0x3e14db51	0.14536788
5	0xbe21e362	-0.15809396
6	0xbe0b4056	-0.13598761
7	0xbebd6426	-0.3699047
8	0xbe05fec6	-0.1308547
9	0x3e84e822	0.25958353
10	0xbce5939d	-0.028024489
11	0x3e9fabe0	0.31185818
12	0xbde64ac8	-0.11244732
13	0x3d7311b9	0.059343074
14	0xbd7b26c2	-0.06131626
15	0x3da6aef2	0.08138837
16	0xbdf8fd3d	-0.12157676
17	0x3e32a111	0.17444254
18	0x3d9ef74a	0.077620104
19	0xbe05de64	-0.13073117
20	0x3e700c91	0.23442294
21	0x3e7615a4	0.24031693
22	0x3e41e379	0.1893443
23	0x3e1121d3	0.14173059
24	0x3e846978	0.25861716
25	0xbc823ee2	-0.015899125
26	0x3e5c2a5b	0.21500532
27	0x3de85dec	0.11346039
28	0x3ddd0153	0.10791268
29	0x3e735ad1	0.23765112
30	0xbd19b15f	-0.03752267
31	0xbd82aa87	-0.06380182
32	0x3f2d4400	0.67681885
33	0x3ecba781	0.39776233
34	0x3ea0ddd2	0.31419235
35	0x3e498961	0.19681312
36	0x3ef31658	0.47477984
37	0x3e136687	0.1439458
38	0x3e72a998	0.23697507
39	0x3d7f29f6	0.062295876
40	0x3e2e7b25	0.17039163
41	0x3e54db15	0.20786698
42	0x3d90aeae	0.070645675
43	0x3e52af31	0.20574643
44	0x3dc555cc	0.09635505
45	0x3e8a0a74	0.269611
46	0x3f015e03	0.50534075
47	0x3eb9b281	0.36269
48	0x3ee75435	0.45181432
49	0x3db98413	0.09058394
50	0x3e554c27	0.20829831
51	0x3ee08e30	0.4385848
52	0xbe01ddf9	-0.12682332
53	0x3e61de41	0.2205744
54	0xbe72ac40	-0.2369852
55	0xbcdcfa06	-0.02697469
56	0x3e982b79	0.29720667
57	0xbd41837b	-0.04724453
58	0x3f1a6426	0.60309064
59	0x3ed45483	0.41470727
60	0xbd9dc50c	-0.07703599
61	0xbc8a0838	-0.016849622
62	0xbe33c745	-0.17556484
63	0x3ea03b73	0.31295356
64	0x3d5d839d	0.054080594
65	0xbe405d37	-0.18785559
66	0x3dc34ca5	0.09536103
67	0x3dd456a6	0.103680894
68	0x3e4ad5ea	0.19808164
69	0x3eb15c22	0.34640604
70	0x3e15ef57	0.14642082
71	0xbd914cb9	-0.07094712
72	0x3e1e7376	0.15473732
73	0xbe01bb3b	-0.12669079
74	0x3e65f5dc	0.22457069
75	0x3e116dfd	0.14202113
76	0x3eb38673	0.35063514
77	0x3dbe778c	0.093001455
78	0x3ea89d79	0.32932642
79	0x3e122a41	0.14273931
80	0x3ddf8712	0.109144345
81	0x3dfd7295	0.123753704
82	0x3e228289	0.15870108
83	0x3e332594	0.17494804
84	0x3e304fea	0.17217985
85	0x3e8a6ea8	0.2703755
86	0xbe096256	-0.13416418
87	0x3e90b08f	0.28259704
88	0xbd3ce56b	-0.046117228
89	0x3e463828	0.1935736
90	0x3e737dea	0.23778501
91	0xbe030a5b	-0.12796919
92	0xbe0447c2	-0.12917998
93	0x3ea48e7e	0.32139963
94	0xbdad1f4c	-0.08453235
95	0xbe22e2e6	-0.15906867
96	0x3e4f437f	0.20240591
97	0x3e3093de	0.17243907
98	0x3da0236a	0.07819255
99	0x3ddd7c45	0.10814718
100	0x3d30f7fb	0.043205243
101	0x3e10b530	0.14131618
102	0x3e7f374f	0.24923442
103	0xbe52c8d1	-0.20584418
104	0x3e30bb47	0.1725894
105	0x3e3ba65f	0.18325184
106	0x3cbf02c8	0.023316756
107	0xbdb71e2c	-0.08941302
108	0x3db5a48f	0.08869278
109	0x3e1bc8b4	0.15213281
110	0xbd010f6e	-0.031508856
111	0x3efc5f3a	0.49291402
112	0x3e9dfc27	0.3085644
113	0x3ee5a068	0.44848943
114	0x3e98e10c	0.29859197
115	0x3e44046f	0.19142316
116	0x3ed8bdc6	0.42332286
117	0x3c0a4dfa	0.008441443
118	0xbe5cbcbb	-0.2155637
119	0x3e3ef1d3	0.18646936
120	0x3e5803aa	0.21095148
121	0xbe276910	-0.16348672
122	0x3dc85954	0.09782663
123	0x3df18461	0.117928274
124	0x3eb6c900	0.35700226
125	0x3c83a369	0.016069131
126	0xbe1fcf71	-0.15606476
127	0x3e092faf	0.13397096
128	0xbd2b5946	-0.041833185
129	0x3edeee4d	0.43541184
130	0x3e1f1368	0.15534747
131	0x3e75e124	0.24011666
132	0x3e560d10	0.2090342
133	0x3e311d74	0.17296392
134	0x3e3693f2	0.17829874
135	0xbc9d36d5	-0.019191185
136	0xbc4463f7	-0.011986724
137	0xbdd4008a	-0.10351665
138	0xbe12cf24	-0.1433683
139	0x3d93bf53	0.072142266
140	0xbcd4c8f8	-0.025974736
141	0x3e2fa667	0.17153321
142	0x3d7ea4d3	0.062168907
143	0x3d9310c7	0.071809344
144	0xbdc98d38	-0.098413885
145	0xbd3479ec	-0.044061586
146	0x3e86210b	0.26197085
147	0x3ddc3332	0.10751952
148	0xbe10a144	-0.14124018
149	0x3da3d4e9	0.07999594
150	0x3e09a9e5	0.13443716
151	0x3e9219e0	0.28535366
152	0xbc899097	-0.016792579
153	0x3ea6cebe	0.32579607
154	0x3df4a0c3	0.11944725
155	0x3e728031	0.23681714
156	0x3e922363	0.28542623
157	0x3dec8fa2	0.11550833
158	0x3e81d35b	0.25356564
159	0x3ea6eb37	0.3260133
160	0x3f1e8b2c	0.6193111
161	0x3e5968f2	0.2123144
162	0x3e72f599	0.237265
163	0xbea8aa01	-0.32942203
164	0xbdcfb385	-0.101416625
165	0x3e146c6a	0.14494482
166	0x3e6d7f18	0.23193014
167	0xbea0ddb8	-0.31419158
168	0x3db42bc8	0.08797413
169	0x3e79feb1	0.24413563
170	0x3e12734b	0.14301793
171	0xbe180b30	-0.14848018
172	0xbecf4cb2	-0.404882
173	0x3e08862e	0.13332435
174	0xbe0116e9	-0.12606396
175	0x3ecaf567	0.39640352
176	0xbe7f8494	-0.24952918
177	0x3cdafa48	0.026730672
178	0x3ec9414a	0.39307624
179	0x3df3688a	0.118851736
180	0x3e6e4d2c	0.23271626
181	0x3ea30870	0.31842375
182	0x3e2c2df5	0.16814406
183	0x3e0ae2e3	0.13563113
184	0xbe6c047e	-0.23048589
185	0x3ed94350	0.42434168
186	0x3e621384	0.22077757
187	0x3dd80698	0.10548133
188	0xbd99cdb8	-0.07509941
189	0xbdb0cc26	-0.08632688
190	0x3e0ad658	0.13558328
191	0x3e0201c5	0.12695988
192	0x3e96825c	0.2939633
193	0xbc71847b	-0.014741058
194	0xbce20635	-0.02759085
195	0x3ea16679	0.31523493
196	0x3d98fcf9	0.07470126
197	0x3e7716c9	0.24129786
198	0xbe3f0337	-0.1865357
199	0xbe43674d	-0.19082375
200	0x3e63f3d5	0.22260983
201	0x3e1ef860	0.15524435
202	0xbd5198a2	-0.051170953
203	0xbd61bfa3	-0.0551144
204	0x3eb14ea3	0.34630308
205	0x3df62e86	0.120205924
206	0x3e602cf5	0.2189215
207	0x3eaed7be	0.34148973
208	0x3ec022da	0.3752659
209	0xbdc81af2	-0.097707644
210	0x3f034c62	0.51288426
211	0x3f146c25	0.57977515
212	0x3e4907c6	0.19631872
213	0x3e1ba463	0.15199427
214	0x3e9a6183	0.3015252
215	0x3d20b576	0.039235555
216	0x3eb7bfe1	0.3588858
217	0xbe1e6990	-0.15469956
218	0x3ec99949	0.3937476
219	0x3df9ac9c	0.12191126
220	0x3e5e45f6	0.21706375
221	0x3edf2fbf	0.43591115
222	0xbd565f2c	-0.052336857
223	0xbe13cb64	-0.14433056
224	0xbe084468	-0.13307345
225	0xbc844f57	-0.016151113
226	0xbd161da4	-0.03664936
227	0x3ee6b08f	0.4505658
228	0x3d1f7399	0.038928602
229	0x3dd30439	0.1030354
230	0xbe1dbc6c	-0.15403908
231	0x3e0cf67d	0.13765903
232	0xbdfe67b7	-0.12422126
233	0xbd708364	-0.058719054
234	0x3e713b12	0.2355769
235	0x3ed917d5	0.42400995
236	0xbd98a8c7	-0.07454067
237	0x3d06b8cf	0.03289109
238	0xbd5147cf	-0.051093873
239	0x3e44982f	0.19198678
240	0x3e555568	0.20833361
241	0x3e84d398	0.25942683
242	0xbe0ed62b	-0.13948886
243	0xbda963c9	-0.08270986
244	0x3df1b664	0.118023664
245	0x3e914d06	0.28379077
246	0x3ebf871a	0.37407762
247	0xbec1ef80	-0.37878036
248	0x3e304994	0.17215568
249	0xbd9a7cd9	-0.07543344
250	0x3f104193	0.5635006
251	0xbe38cb18	-0.18046224
252	0x3e7277eb	0.23678558
253	0x3e527c2a	0.20555177
254	0x3d022fbc	0.031783804
255	0x3eb752f5	0.3580548

l1.bias f4 [8]
0	0x3eadab99	0.3391998
1	0x3eb1d869	0.3473542
2	0x3ede3487	0.4339945
3	0x3ef77178	0.48328757
4	0x3f211fd5	0.62939197
5	0x3f48c5dc	0.7842691
6	0x3f255cf5	0.64594966
7	0x3f2ab771	0.6668616

l2.weight f4 [4, 8]
0	0x3f562808	0.8365483
1	0xbf8434df	-1.0328635
2	0xbf555a92	-0.83341324
3	0x3f9a6995	1.2063471
4	0xbf639b44	-0.8890879
5	0xbf091221	-0.5354329
6	0xbf4c4d1b	-0.79805154
7	0xbf8a7729	-1.0817615
8	0x3f40fcd7	0.75385803
9	0xbf822ae2	-1.0169337
10	0x3fa3fd51	1.2811681
11	0xbfad2612	-1.3527243
12	0xbf849484	-1.0357823
13	0xbfc215e4	-1.516293
14	0xbf99ceaa	-1.2016194
15	0x3f8675c0	1.0504684
16	0xbf9c257c	-1.2198939
17	0xbfb681f6	-1.4258411
18	0xbf5cfe5b	-0.86325616
19	0xbf855690	-1.0417042
20	0x3f6e4d22	0.93086445
21	0x3fa2a574	1.2706742
22	0x3f3be7b3	0.7340042
23	0x3f56e2f5	0.8394006
24	0xbf6ac50f	-0.9170694
25	0x3f654542	0.89558804
26	0x3f58d1fb	0.84695405
27	0x3e87bba3	0.26510343
28	0x3f16164b	0.58627766
29	0xbfbc2590	-1.4698963
30	0x3f374c82	0.71601117
31	0xbfad9acf	-1.3562869

l2.bias f4 [4]
0	0x3eacef60	0.3377638
1	0xbd09a1c3	-0.033601534
2	0xbd3abf89	-0.04559282
3	0xbe14ead4	-0.14542705
