train/data.pth (torch, 44842 bytes, 6 tensors)

l1.weight f4 [8, 891]
000000 ed 09 4c 3e 14 65 d5 bc e7 df 9c ba da 9a 16 3e
       0.19925661 -0.026049174 -0.0011968584 0.14707509
000010 9d 26 13 3e a5 3f af 3b 19 97 85 3f 25 06 48 3d
       0.14370199 0.005348163 1.0436736 0.048833985
000020 fe 42 60 3e f1 64 b5 3d 5c c1 b6 bd 5a e9 07 3d
       0.21900555 0.08857144 -0.08923599 0.033181526
000030 4b a7 9c bd e1 5b 04 3d 7a 4b ae bd 5b b9 69 3d
       -0.07649096 0.032314185 -0.0851049 0.057061534
000040 f2 d9 cc 3f 30 96 74 3f dc e2 a9 bc a9 18 08 3e
       1.6004012 0.9554167 -0.020738058 0.13290657
000050 0f 25 8f 3f dc ce 9e 3d 43 d7 d6 3d 9c 99 9d 3e
       1.1183184 0.07754299 0.10490277 0.30781257
000060 ca 3b 4b 3d 64 ad 3b 3e b6 46 df bc 69 f8 05 3f
       0.049617566 0.18327862 -0.027255397 0.5233217
000070 80 86 d8 bd eb b2 4d 3e 2e 7e a6 3d a2 42 77 3e
       -0.10572529 0.20087783 0.081295356 0.24146512
000080 2c 34 ef 3b 59 e7 da 3f 91 0f ba bc 05 6e 16 3e
       0.0072999205 1.7101852 -0.0227125 0.14690407
000090 fb 7a 84 3d dd 66 1f 3f 87 a5 1b bd 37 f9 e1 3e
       0.06468769 0.6226633 -0.037999656 0.44135448
0000a0 e7 b7 98 bd f0 2e 18 bd cf ca b7 3c 24 e3 07 3f
       -0.074569516 -0.037154138 0.022435574 0.53080964
0000b0 a6 aa 08 3d a9 b2 13 3e 4d 68 93 3f eb 29 da bc
       0.033365868 0.14423622 1.1516205 -0.026631316
0000c0 4c 53 e8 3b 30 3b 00 bc f1 56 df 3d b6 06 3a 3f
       0.007090008 -0.007826611 0.10905255 0.7266649
0000d0 48 e9 a0 3e 4c ef 0e 3c 85 1d 9f 3d e1 3d 32 bd
       0.3142798 0.008724045 0.07769302 -0.043516044
0000e0 c4 54 63 ba 80 fc 53 bc 0b d3 f2 3d e2 cf 1b be
       -0.0008671994 -0.012938619 0.118566595 -0.1521602
0000f0 eb 11 93 3f f4 2d fb 3d 60 3d 7b 3c fb 54 99 3c
       1.1489843 0.12264624 0.015334457 0.01871728
000100 7c 2f 73 3e 9b ab b6 bb ad 26 ba 3b 78 fc 8e bd
       0.23748583 -0.005574656 0.00568088 -0.06981748
000110 5a 20 f9 3e 39 24 32 3e 93 ad e5 3c 70 67 2e 3e
       0.48657495 0.1739663 0.028036868 0.17031646
000120 21 c7 39 be e6 e7 56 bd 60 81 73 3e aa 54 b2 3c
       -0.18142368 -0.05246725 0.23779821 0.021768887
000130 88 17 1e 3d 22 01 15 3e 60 4f 97 bd bc e4 08 bd
       0.03859666 0.14551213 -0.073881865 -0.033421263
000140 19 c2 6c bb 82 61 b5 bb 97 55 7d 3d c5 fa 64 3e
       -0.0036126433 -0.0055353055 0.061849203 0.22361286
000150 e8 d6 84 3e 7a 8e 28 bc 4c 7b 0e be 04 cb bd 3e
       0.2594521 -0.010287875 -0.13914222 0.3706895
000160 47 56 8e 3e 0f d6 2e 3e 18 94 2d bc 5b 8d 59 3e
       0.278002 0.17073844 -0.01059439 0.21245329
000170 db 02 0e 3e 20 d1 25 3e 0e ca c8 3d cb eb d1 3c
       0.13868277 0.16193056 0.09804164 0.02562513
000180 b2 db d4 bd d9 3b 12 3e ab 7c 6f 3e 13 1c 00 3e
       -0.10393466 0.14280643 0.23387401 0.1251071
000190 94 fc 67 3c 33 42 aa bb ee ac eb 3e ce 90 20 3e
       0.01415934 -0.00519588 0.46030372 0.15680239
0001a0 40 a7 cc bc f6 86 1c 3e f9 27 bb 3c 16 0d 3f bd
       -0.024982095 0.15285859 0.022846209 -0.04664334
0001b0 99 8b e5 3d 0a 12 4e bd 2a 6c 8a 3e 0e 9f 3b 3b
       0.11208267 -0.050310172 0.27035648 0.002862874
0001c0 75 66 cd bd 2b e0 8a 3d 21 55 0d 3f 0b d4 43 3e
       -0.10029308 0.06781038 0.5520802 0.19123857
0001d0 a9 df 3b bd d9 5b 2c 3e 65 c9 29 3f 56 45 6e 3d
       -0.045867596 0.16831912 0.6632293 0.058171593
0001e0 02 ca 61 3d 91 73 dc bd 5d b3 0c 3e 95 d7 21 3e
       0.05512429 -0.1076423 0.13740297 0.15804894
0001f0 bc 43 75 3f 88 7f 46 3e d7 8d 70 3e 94 64 57 3f
       0.9580648 0.19384587 0.23491608 0.84137845
000200 c0 d2 27 bc 89 3d 60 bd 9d f7 a0 bc 0f 3f 25 3f
       -0.010243118 -0.054746184 -0.019649321 0.64549345
000210 4d e1 12 3f 14 f6 03 3d 32 d0 be bd c6 6f 0b be
       0.5737503 0.0322171 -0.09317054 -0.13616857
000220 fd 68 9a 3e 8d b8 25 bc 16 a1 04 be 34 6f 08 be
       0.30158225 -0.010114801 -0.12952074 -0.1332367
000230 ec 41 cf bd a9 a2 50 bd e0 22 88 3d 54 62 08 3e
       -0.101199955 -0.050936375 0.06647277 0.13318759
000240 6e 60 29 3b df 90 86 3d 5a 3c 6f 3d be 9c 82 3d
       0.002584483 0.06570601 0.058407165 0.063775524
000250 c6 14 c0 3d f8 b8 01 3f dd 2d 87 bd fa 13 d2 3e
       0.09378962 0.50672865 -0.066005446 0.41030866
000260 20 02 cf 3d a7 bf 96 3e d9 5f 93 3e 4c 0d 6b 3e
       0.10107827 0.29443094 0.28784063 0.22954291
000270 d6 1a 0a be b9 c0 be 3e a9 10 ac 3c 69 94 1c 3d
       -0.134868 0.3725641 0.021004038 0.038227472
000280 f1 b3 bd 3d 50 61 0e 3e 0c 4d 6e bd 19 73 e3 3d
       0.09262837 0.1390431 -0.058178946 0.111059375
000290 0d 4e 29 3f f5 90 86 3e f5 e8 95 3b c5 09 86 3e
       0.6613472 0.26282468 0.00457489 0.2617933
0002a0 61 82 4d 3e c3 48 14 3e 31 64 14 3d d2 02 38 3f
       0.20069267 0.14480881 0.036228362 0.71879303
0002b0 f8 29 0e 3d 16 b1 29 3e 14 d5 b0 3d 54 4f 3f 3e
       0.034707993 0.16571459 0.086343914 0.18682605
0002c0 2c 2f 60 3f 83 b1 39 3e fa b9 68 3e 42 c9 1f 3e
       0.8757198 0.18134122 0.22727194 0.15604118
0002d0 c6 58 01 be 0e 9d 27 3e d0 5b 9c bc b8 aa c9 bd
       -0.1263152 0.16368505 -0.019086748 -0.09847015
0002e0 57 0d 02 3f 68 ef a6 3e b8 1b 17 bd 50 d6 16 be
       0.50801605 0.32604527 -0.03689167 -0.14730191
0002f0 ae 61 d5 3d b3 00 79 3d 0c 4a 09 3d 77 03 9a bd
       0.104190215 0.060791682 0.033517882 -0.07520192
000300 14 9f 35 be 60 d5 61 3d 05 da bd 3e 26 0a 59 3c
       -0.17736465 0.05513513 0.37080398 0.0132470485
000310 ba a6 3b 3e bf 7d dc 3d d8 4f 93 bd e7 12 44 3d
       0.1832532 0.10766172 -0.07192963 0.04786959
000320 0f 87 6b 3e 7d 23 c3 3d 02 b4 56 3d 8c 81 f4 bc
       0.2300074 0.09528253 0.052417763 -0.029846929
000330 4e 4e 80 3e 2e 1d 08 bc 95 f6 54 bd f2 40 19 bd
       0.25059742 -0.008307738 -0.05199297 -0.037415452
000340 14 fb 1f bd 48 83 91 3e 72 34 73 3f d7 9c 62 3e
       -0.039057806 0.28420472 0.950019 0.22130142
000350 70 6c aa bd 22 4e 0b 3e 5c b5 47 3d a1 80 9b 3f
       -0.08321464 0.13604024 0.048756942 1.214863
000360 d2 dc 21 bd 4b d5 61 3e b8 32 87 be 4e 0d 84 3c
       -0.03951723 0.22054021 -0.26405883 0.016119625
000370 a1 7d 0f be 3c b4 94 3d 2b 57 15 3e 90 bb 27 3e
       -0.14012767 0.072609395 0.14584033 0.16380143
000380 15 45 d1 3e 56 80 d9 3d 3a 12 35 3f 50 93 39 bd
       0.40873018 0.10620181 0.70730937 -0.045306504
000390 d6 0c 50 3e ef db 00 bd 68 24 e5 3f 01 37 22 3e
       0.20317397 -0.031459745 1.7901735 0.15841295
0003a0 c4 59 f1 3d a7 1c 3b 3e 5c 0a 03 3f c8 e2 06 3e
       0.117846996 0.18272649 0.5118768 0.13172448
0003b0 4a d7 7e bd 29 1e 01 3f 99 84 1f 3e 81 05 4d 3b
       -0.062217034 0.50436646 0.15577926 0.0031283798
0003c0 55 b7 98 3f cc 43 93 3c 2d 02 c7 3d 2d 5e 2a bd
       1.1930948 0.017976664 0.09717212 -0.04159372
0003d0 7e fc 8b 3d f4 c0 20 3c df 2a 91 bd d4 95 31 be
       0.068352684 0.009811629 -0.07088255 -0.17342311
0003e0 f8 cc 53 bd bd 23 ae 3d 84 73 47 3b b5 e3 64 bd
       -0.051709145 0.0850291 0.0030433843 -0.05588122
0003f0 8e d3 2f 3d 2d a1 67 3b 0d 6b d4 3d 15 6e 10 3d
       0.042926364 0.003534387 0.10371981 0.035261232

l1.bias f4 [8]
000000 df d3 66 40 03 6d 17 40 b2 55 84 40 91 65 6f 40
       3.6066816 2.3660285 4.135461 3.7405741
000010 c3 a5 95 40 fa d7 dd 3f b8 bd 4f 40 e4 68 5b 40
       4.6764846 1.7331536 3.2459545 3.428277

l2.weight f4 [8, 8]
000000 0f 12 11 bf 0b 0a 19 bf 98 08 95 3f 92 68 56 3f
       -0.5666818 -0.5978095 1.1643248 0.8375331
000010 59 63 c2 3f 45 22 f5 be 2e ad 90 3f 65 f6 8f 3f
       1.5186568 -0.47877708 1.130285 1.1247069
000020 30 12 71 3f a0 2c f9 3f f8 6c 9c 3f bb 79 aa 3f
       0.94168377 1.9466743 1.2220755 1.3318399
000030 42 6a a7 3f c6 6a 22 bf d8 b5 92 3f 10 e3 13 40
       1.3079302 -0.63444173 1.1461744 2.3107338
000040 86 b5 18 40 5f 65 2b 3f 43 f0 4c 40 49 62 82 40
       2.3860793 0.66951555 3.2021644 4.0744977
000050 7c 62 36 40 0e c9 1a 40 95 b7 5e 40 9d 73 e0 3f
       2.849761 2.4185214 3.479955 1.7535282
000060 11 fc 7d 3f b4 cb 44 3f d0 46 17 40 81 d4 e8 3f
       0.9921275 0.76873326 2.363697 1.8189851
000070 64 0f 29 40 72 49 d8 3d 83 d4 df 3f e3 7d fe 3f
       2.6415644 0.105608836 1.7486728 1.9882168
000080 98 75 f2 3e 49 94 dc 3f dc bd fb be b9 e3 a4 3e
       0.47355342 1.7232753 -0.4916829 0.3220499
000090 ba 90 80 3f d3 d6 48 bf 5f b9 ad bd 01 cf aa 3f
       1.0044167 -0.78452796 -0.08482622 1.3344423
0000a0 1b e7 06 40 4c 21 56 40 a1 3a 34 40 fe d2 45 40
       2.1078556 3.3457823 2.8160784 3.091003
0000b0 8e 75 61 40 83 fd 8b 3f 3d c4 14 40 7f b9 85 40
       3.5228 1.0936741 2.3244774 4.1788936
0000c0 5a 3f 42 40 c6 87 fc 3f 42 1b c2 3e 1d 97 a4 3c
       3.0351167 1.9728935 0.3791142 0.020091588
0000d0 d1 35 73 40 bd 2c af 3f 7d 63 a6 3c 02 12 06 40
       3.8001597 1.3685528 0.020311112 2.094849
0000e0 38 ec e1 3e 20 5d 4f 3f 62 fb e3 3f 72 d3 b0 3f
       0.44125533 0.8100147 1.7811091 1.3814528
0000f0 b4 ad 04 40 45 8a b0 be 81 1c 7b 3f e3 46 c7 3f
       2.073102 -0.3448049 0.9809037 1.5568508

l2.bias f4 [8]
000000 5b 49 db 3e 43 a4 06 3f 52 79 ed 3f cc 41 1a 3f
       0.42829403 0.52594393 1.8552649 0.6025665
000010 a0 6c fd 3e 98 12 8c 3f d7 68 a5 3f f5 0c d9 3e
       0.49496937 1.0943174 1.292262 0.42392698

l3.weight f4 [4, 8]
000000 cf b9 e7 3d 2d c9 80 bf 40 87 43 c0 fa 0a 24 bf
       0.11314737 -1.0061394 -3.05513 -0.6407925
000010 8e 1d b4 bf 89 0d 34 c0 6c c1 3d c0 8c 68 c1 be
       -1.4071519 -2.8133261 -2.9649305 -0.37775075
000020 03 a6 ce bf bb 75 22 be 04 ee a2 c0 5a 0b f2 bf
       -1.6144413 -0.15865223 -5.0915546 -1.8909714
000030 81 84 09 3f 14 df 6e bf be 73 d5 bf c0 b2 92 bf
       0.5371781 -0.9330914 -1.6675947 -1.14608
000040 d6 4a 60 bf 5b 4f 04 c0 9a db 11 c0 55 64 e1 bf
       -0.8761419 -2.0673435 -2.2790284 -1.7608744
000050 60 80 94 bf 4b 7b 6d c0 27 95 f7 3e b4 64 c1 bf
       -1.1601677 -3.7106502 0.48355982 -1.5108857
000060 d5 d0 a4 bf d6 e1 b5 bf e7 3b b7 3e d0 4b 01 c0
       -1.287623 -1.4209545 0.3578789 -2.0202522
000070 53 c9 36 bf d2 68 89 c0 21 4e 41 c0 e4 b3 c5 bf
       -0.71400946 -4.2940454 -3.0203936 -1.5445523

l3.bias f4 [4]
000000 19 8d 14 bf 3d 20 21 bf 89 69 d6 3e 4c 50 06 3f
       -0.580278 -0.62939817 0.41877392 0.52466273
