train/data.pth (torch, 60536 bytes, 4 tensors)

l1.weight f4 [8, 1239]
000000 0b 82 9a bd 99 c4 94 3e 63 da 35 3e 78 e6 78 3e
       -0.07544335 0.29056242 0.17759089 0.24306667
000010 48 2b a5 bd 3e e1 94 3e 51 55 cb 3e 03 51 ed 3d
       -0.08064896 0.29078096 0.3971353 0.115877174
000020 96 bb 6d 3e 99 56 01 be e3 86 3d 3e 71 b3 f6 bc
       0.2321609 -0.1263069 0.18508486 -0.030114861
000030 e1 62 19 3e 2b a1 48 bd 51 a1 85 3e 95 5c c8 39
       0.14979126 -0.048981827 0.26099637 0.00038215952
000040 7b 65 99 3e b7 23 55 be aa c5 22 be 3e ef 1f 3e
       0.29960236 -0.20814405 -0.15895715 0.15618607
000050 5c ed 25 3e 6e 3b 0a be 92 67 98 bb ce c5 29 be
       0.16203827 -0.13499233 -0.0046510184 -0.16579363
000060 e0 b3 cb bc 0d 56 ba 3c 78 11 3b be 7f c7 16 bd
       -0.024866045 0.02274611 -0.18268383 -0.036811348
000070 24 f5 81 3e 26 5a 10 be 77 58 eb 3d c5 72 0e 3e
       0.2538234 -0.14096889 0.11491483 0.13910969
000080 df 1b c3 3e 3a 47 e8 be 2a 01 20 3e 58 a7 0a 3e
       0.381072 -0.45366842 0.15625444 0.13540399
000090 e6 10 51 be 3d 06 42 be d0 80 0b be 07 72 4f bd
       -0.20416602 -0.18947692 -0.13623357 -0.050645854
0000a0 f2 b6 4d be 3b 82 be 3d c0 07 87 bd a0 06 26 be
       -0.2008932 0.09302183 -0.06593275 -0.16213465
0000b0 78 f2 2e be e1 51 a4 3d 38 5a e2 3e 86 69 0e 3e
       -0.17084682 0.0802343 0.44209456 0.13907441
0000c0 38 fa 01 3e 90 81 1a bd fd 79 26 be 73 64 5f 3e
       0.12693107 -0.037721217 -0.16257472 0.21815662
0000d0 d0 ba c0 3e 34 6a b5 3d 04 ab 8f be d8 dd 93 3e
       0.37642527 0.08858147 -0.28060162 0.2888019
0000e0 3c 8d 5e be a3 1d 14 3e f4 aa 95 3e 87 3a 29 3e
       -0.21733564 0.1446443 0.2923199 0.16526233
0000f0 d4 3b af bd ab 40 21 3e e4 a2 2d bc 28 b0 78 3d
       -0.08556333 0.15747325 -0.010597918 0.06071487
000100 3d 92 45 bb c9 a9 7e 3e 3d 72 42 be 0a 80 d2 bd
       -0.003014698 0.24869455 -0.18988891 -0.10278328
000110 5a 40 9b be f9 12 24 bd 9c 97 46 be 4c 48 98 3e
       -0.30322534 -0.040057156 -0.19393772 0.29742658
000120 42 c0 d0 3d 93 5b 59 3e 21 a4 a3 bd 2e 66 b8 3d
       0.1019292 0.21226339 -0.079902895 0.09003864
000130 d5 50 04 3e 3f 72 7d bc 8b 46 9c be 1b dd 4d bc
       0.1292146 -0.015469133 -0.3052257 -0.012564923
000140 26 00 c1 3b 63 a8 30 3d 54 23 b6 bc 91 d8 28 be
       0.0058899103 0.043129336 -0.022233643 -0.16488864
000150 39 5a 02 be 1c ec ef 3d 82 22 0d bd a1 6d 1e 3e
       -0.1272973 0.11714956 -0.034456737 0.15471508
000160 a6 7b 57 3e cf 6d 77 3d 81 c6 f0 3d aa e9 b1 bc
       0.21043262 0.060407456 0.117566116 -0.021717865
000170 8c 1d 54 3e 46 b4 f6 bd 15 fa 18 3e a9 25 fa bd
       0.20714396 -0.12046103 0.14939149 -0.12214214
000180 4e 94 e9 bd ed d8 51 be f3 ec 46 bc bc 19 54 be
       -0.1140524 -0.20492907 -0.012141454 -0.20712942
000190 24 29 98 bc 85 04 9b 3d c4 70 e8 3d 53 cd 17 3e
       -0.018574305 0.075692214 0.11349633 0.14824419
0001a0 d8 53 f5 bd 80 69 c6 bc 30 24 8c 3e 14 b4 b8 3e
       -0.119788826 -0.024220228 0.2737136 0.3607489
0001b0 01 43 51 bd c2 47 15 be 21 63 07 bd c1 4c 67 3e
       -0.05108929 -0.14578155 -0.03305352 0.22587873
0001c0 ce e4 fa 3c 79 7a 06 3e 84 38 00 3d 5e cc ba 3d
       0.03062668 0.13132657 0.031303898 0.09121011
0001d0 f4 e8 5f 3e 3a f3 8c bc 00 f1 85 3e 29 d0 89 3b
       0.21866208 -0.017205823 0.2616043 0.004205723
0001e0 13 39 b7 bb 13 ee 54 bc b4 a1 09 bc fe 77 d4 3e
       -0.0055915206 -0.012996214 -0.008400369 0.41497797
0001f0 1f b8 85 3e 97 a6 8b be 7d aa 06 bc c6 86 0c be
       0.26117036 -0.27275535 -0.0082193585 -0.13723287
000200 7d ee 7a bc 56 aa 3f 3d da 0f 05 be 63 47 96 3d
       -0.015315649 0.046793304 -0.12994328 0.07337835
000210 70 b0 7d be 74 4c 37 be 3f 6d 5d 3d 4a 3d 20 3c
       -0.24774337 -0.17900258 0.054059263 0.009780237
000220 e5 8b 2d 3e fd 1a 2d 3e 63 2d 4e 3e e8 a1 51 be
       0.16947897 0.16904826 0.20134501 -0.20471919
000230 02 27 d0 bd c7 05 57 be 15 bb 1c bd 3f eb e7 bd
       -0.1016369 -0.20998298 -0.038264353 -0.113241665
000240 61 fe 8c 3e 9a ef 1b 3e 94 a3 0f be 81 59 a2 bc
       0.27537826 0.1522812 -0.14027244 -0.01981807
000250 de de 5e 3e 2b cb 27 bd ce b9 39 be 03 48 30 3e
       0.21764705 -0.04096524 -0.18137285 0.1721497
000260 3c d9 43 bc b7 66 2f 3e 8f 15 fd bd 74 f8 4f 3e
       -0.011953648 0.17129026 -0.123576276 0.20309621
000270 b5 a3 18 3e a1 7e cd bc fe 05 91 3d 4a d7 4a be
       0.149062 -0.025084795 0.07081221 -0.19808689
000280 8e dc 8b 3e 5d 8c 51 be 60 34 c5 bd 5e 3c d6 3e
       0.27316707 -0.204637 -0.0962913 0.41842932
000290 71 87 7e 3e 8f 76 e3 bd bc 83 de 3d 93 81 56 3e
       0.24856354 -0.11106598 0.1086497 0.20947866
0002a0 41 b9 d9 bd 40 4c 28 be 77 8e 79 bd 37 a3 aa bc
       -0.106310375 -0.16435337 -0.06092688 -0.02082978
0002b0 c6 90 c6 3e 0f 9e 1f 3f af dd 98 3e ea 66 39 3e
       0.38782328 0.62350553 0.2985663 0.18105665
0002c0 b4 e8 e0 3e 3f 99 b4 3e 3b 86 4c bb e5 94 0b be
       0.43927538 0.35273167 -0.0031207937 -0.13631018
0002d0 fb 44 2b 3e 9c e0 55 3e 1f e8 d1 3e 6a 6b af 3d
       0.16725533 0.20886463 0.40997407 0.085654095
0002e0 a2 90 87 3e 05 99 90 3e d6 09 2d 3e d8 f6 0d 3e
       0.26477534 0.28241745 0.16898283 0.13863695
0002f0 0d 80 7e 3e 4c d5 87 bc 74 cc 52 bd 1b bf 2e 3c
       0.24853535 -0.0165812 -0.051464513 0.01066568
000300 e6 62 21 bc 2c b0 4a 3e ae 6e bc 3e 79 09 50 bd
       -0.009850239 0.19793767 0.36803192 -0.050790284
000310 67 d4 98 bd 0b 2f 80 be 62 45 82 3e 48 d3 b5 3e
       -0.074623875 -0.2503589 0.2544356 0.35512757
000320 ee 12 1d be 7e d4 4c 3c c9 c8 85 3e bc b1 c6 3d
       -0.15339252 0.012501834 0.2612975 0.09701869
000330 a0 9f 75 3d eb 4c 84 bb 94 0c e2 bc f8 45 98 be
       0.059966683 -0.0040374896 -0.027593888 -0.29740882
000340 78 62 89 bd 62 04 4f 3c 5e ec 49 3e 8a d3 8a 3e
       -0.067082345 0.012635322 0.19719073 0.27114516
000350 4d 6b e0 bd 43 7c 6e be 11 b8 fe 3d b5 02 50 3e
       -0.10957966 -0.2328959 0.12437452 0.20313533
000360 5f 11 ee 3d be ff ca bc 17 f9 1d 3e 2f 5b a8 bd
       0.11624407 -0.02478015 0.15427051 -0.08220517
000370 2f f6 52 bd 5c cb d1 be 50 35 25 3c 90 42 43 3e
       -0.05150431 -0.40975463 0.0100835115 0.1906836
000380 19 ff a0 3e ab 22 e0 bc a8 dd 60 3e 9d 89 d2 bc
       0.31444624 -0.027360281 0.21959555 -0.025700385
000390 7c 00 81 3d 92 71 9c bc 9a 44 57 be ac f9 c2 bd
       0.062989205 -0.019097123 -0.21022263 -0.095202774
0003a0 da 25 37 3e 2c ea ab bc 6f 50 4c be 4d fc 66 be
       0.17885533 -0.020985685 -0.19952558 -0.22557183
0003b0 28 9a d6 3e e9 b6 54 be 74 8d a6 bc 9c 68 06 3e
       0.41914487 -0.207729 -0.020331122 0.13125843
0003c0 00 f9 7f be 36 00 7b be 83 f4 c1 3e 17 27 71 be
       -0.2499733 -0.24511799 0.3788186 -0.23550068
0003d0 d2 fa 0e 3d fb af 11 3e c3 3b 4f 3e d3 dd f1 3e
       0.03490717 0.14227287 0.20237641 0.4723955
0003e0 7d f4 8a 3e f2 78 7d 3e 8e a7 50 3e 68 d2 73 3e
       0.27139655 0.24753168 0.20376417 0.23810732
0003f0 d8 1d 05 3e 9c e1 bf 3d e6 38 94 bd 8c eb ff 3d
       0.12999666 0.093692034 -0.07237415 0.12496099

l1.bias f4 [8]
000000 e3 7e a6 3e f5 74 50 3f bc 60 2f 3f 81 a8 ab 3e
       0.32518682 0.8142846 0.6850698 0.33526996
000010 98 07 48 3f 18 7f d1 3e f5 c6 68 3f 23 ac d7 3e
       0.7813659 0.40917277 0.90928584 0.42123517

l2.weight f4 [4, 8]
000000 4c 83 1a 3f e9 c1 64 bf 09 f2 87 bf 74 3a f2 3e
       0.60356593 -0.89358383 -1.0620738 0.4731022
000010 6b dc a7 bf d8 0f 97 3e 55 a3 47 3f d0 2a 6a 3f
       -1.3114141 0.29504275 0.779836 0.91471577
000020 88 42 29 bf 3c 12 95 bf 0a 00 94 bf 0b cf 7e bf
       -0.66117144 -1.164619 -1.1562512 -0.9953467
000030 49 fd 91 3f 63 1e b2 3f 96 6c c0 bf 59 c1 93 bf
       1.1405421 1.3915523 -1.5033138 -1.154338
000040 83 00 a5 bf 6e 92 88 3f 67 76 31 3f 63 0e a8 bf
       -1.2890781 1.0669687 0.6932129 -1.312939
000050 bf 8b b7 3e 94 66 b1 bf f8 6c b9 3f e2 38 1b bf
       0.35848805 -1.3859429 1.448638 -0.6063367
000060 52 d5 a4 3f bc 27 43 3f 52 05 7e 3f de 04 8e 3f
       1.28776 0.76232505 0.9922687 1.1095235
000070 51 49 91 bf 74 78 58 bf 85 01 cc bf 45 98 98 bf
       -1.1350499 -0.84558797 -1.5937964 -1.1921469

l2.bias f4 [4]
000000 ff 77 21 be 57 c5 09 3f 1b a4 3a 3e 77 e1 cd 3a
       -0.15768431 0.5381674 0.18226664 0.0015707453
