train/data.pth (torch, 36792 bytes, 4 tensors)

l1.weight f4 [4, 1118]
000000 fb 4e cd 3c 77 0d 6b bc d4 a4 f0 bc 64 90 b1 bd
       0.025062075 -0.014346472 -0.029375471 -0.086701185
000010 b2 22 f1 3d 0f 9b dd bd 1c 31 06 3b ef de b6 be
       0.11774196 -0.10820591 0.0020476049 -0.3571696
000020 e5 cc 59 bc ad 8e c3 3e 4d ad fd 3b b2 08 e0 3e
       -0.01329348 0.3819479 0.0077416063 0.43756634
000030 d1 67 d5 3c 04 e3 af bd 44 58 ea 3d 51 b7 01 3e
       0.02605048 -0.08588222 0.114426166 0.12667586
000040 e8 53 e3 3d 39 19 cc bd 20 24 6c 3e 63 59 b6 3e
       0.11099988 -0.09965748 0.23060656 0.35615072
000050 33 74 5a 3e 59 6f 98 3e b4 4b 3c bc a5 cc 38 3e
       0.21333389 0.29772452 -0.011492658 0.18046816
000060 c2 ea 05 3e 8c 13 a3 3d 20 68 af 3e cb 92 89 bd
       0.13077834 0.07962713 0.3425913 -0.06717452
000070 81 66 17 bd 67 2b 20 3f 5f fd c7 3e ba e1 00 3e
       -0.03696299 0.62566227 0.39060494 0.12586108
000080 8b 50 32 3c 66 31 e4 3e aa 49 21 3e 27 1b aa 3e
       0.010883461 0.44568938 0.15750757 0.3322384
000090 f5 51 c5 3d e3 60 76 3e e0 cf a9 3e 89 09 d4 3d
       0.09634773 0.24060397 0.3316641 0.10353381
0000a0 69 e8 9d 3e 27 78 aa 3d 05 32 23 3e 84 96 1e 3f
       0.30841377 0.083236985 0.1593705 0.6194842
0000b0 bc da 79 3e 8a 0b cf 3e 20 75 b7 3d 4d fd a4 3e
       0.24399847 0.4043849 0.08957887 0.32224503
0000c0 92 be 41 3f 89 25 08 bd f8 86 ec 3d 6b e3 b0 be
       0.7568141 -0.03323892 0.11549181 -0.34548506
0000d0 81 c1 08 bc 2b 4d 0a 3f 4f d4 a4 3e d0 a9 25 be
       -0.008346916 0.54024 0.3219323 -0.1617806
0000e0 fb ba ec ba 32 53 a4 bd 5e dd 56 3e f3 d9 97 3d
       -0.0018061096 -0.08023681 0.20982882 0.074146174
0000f0 5e cc 3d be 0c 14 4d 3e 11 a8 ed 3d 3b df 9f 3e
       -0.18534991 0.20027179 0.11604322 0.31225
000100 d8 7e d2 3e 1f 8a 24 3e 83 a7 50 be 5e 2e dc 3d
       0.411124 0.16068314 -0.203764 0.10751031
000110 12 f5 d3 bc 5e ea a8 3e 15 18 08 3d 63 00 8a 3e
       -0.025873695 0.32991308 0.03322609 0.2695342
000120 b8 a9 a2 3d 91 1e d5 3e 6d f1 e1 3d a0 d1 31 3e
       0.079425275 0.41624883 0.110323764 0.17365122
000130 3d 7f 99 3d a1 76 61 3e 2f 96 29 3e 07 23 2c 3e
       0.07494972 0.2201791 0.16561197 0.16810237
000140 fd c5 40 3e c8 0f b0 bb 19 44 c5 3e 30 43 70 bd
       0.18825527 -0.005372975 0.38528517 -0.058657825
000150 f5 fe d1 3d 95 03 6c 3e 4b 2a 3c bd d7 48 6c bc
       0.10253707 0.23048241 -0.04593877 -0.014421663
000160 9f 0e e3 3e 5c 57 7c bc 7d 33 41 bd 83 a6 2c 3e
       0.44347093 -0.0154016875 -0.047168244 0.16860394
000170 c7 e8 7b 3e 5a ab f0 3d e1 30 84 3e 8e 39 27 bd
       0.24600516 0.11751433 0.25818542 -0.040826373
000180 08 f3 f8 3d d4 64 3a 3e 8c e9 a0 be f7 25 25 3c
       0.121557295 0.18202525 -0.31428182 0.010079852
000190 55 4b d5 bc 62 b1 ee 3d ee 83 03 bc 97 f7 ae 3e
       -0.026036898 0.11654927 -0.00802706 0.3417327
0001a0 cf 25 ba 3d 54 d4 fe 3e 3f ac be 3e 53 d6 d9 3d
       0.09089243 0.49771369 0.37240788 0.10636582
0001b0 0c ae cf 3e 0f 48 96 3c d9 61 24 be a4 ff 67 3e
       0.40562475 0.018344907 -0.16052951 0.22656113
0001c0 6f c3 b1 3e 54 06 96 be cf c9 99 bd bd b0 49 be
       0.34719416 -0.29301703 -0.07509195 -0.19696327
0001d0 75 5c 27 3e 32 c0 46 3b fa 07 9d bd 0d 26 ef 3d
       0.16343863 0.003032696 -0.07667537 0.116771795
0001e0 8a 5c b8 bc 03 dd 43 3f fb 11 17 3e ce 29 61 3e
       -0.022505064 0.7650911 0.14752953 0.21988603
0001f0 b5 52 94 3e af 01 70 3e f8 7a 0f 3e 4e db 01 bc
       0.2896935 0.23438142 0.14011753 -0.0079258215
000200 f7 14 f1 bc 14 20 cb bc 07 b2 f5 bd aa b7 69 3d
       -0.029428942 -0.02479557 -0.11996847 0.05705992
000210 aa ba 91 3c 31 83 5b 3e a0 c0 94 3d 85 27 b5 3d
       0.017789204 0.21436764 0.07263303 0.088454284
000220 fa 02 c4 bd 6a b6 79 3c 45 1f 92 3e fa 57 0c 3e
       -0.0957088 0.015241245 0.28539482 0.13705435
000230 e7 de 92 3b e4 71 ef 3d b8 04 87 3e f9 3e cd bc
       0.0044821384 0.11691645 0.26370788 -0.025054442
000240 a2 35 4d 3e 5f 16 03 3e 0b 61 4c 3e 75 8f c6 3d
       0.2003999 0.12801503 0.19958894 0.09695331
000250 8a 79 8c 3e 90 12 e4 3e ba 20 0a 3f 2c c1 80 3e
       0.27436477 0.44545412 0.53956187 0.25147378
000260 0f 94 99 3e 09 d5 84 be 03 ae a6 bd fc 2a 1b 3e
       0.29995772 -0.25943783 -0.08138659 0.15153116
000270 6d 74 97 3e 8e 41 4e be 2b 98 aa 3d ac e0 90 3e
       0.29581013 -0.20142195 0.08329805 0.2829641
000280 fe c1 47 3e 8b 40 81 bd 0a 64 89 be 26 5f 0f be
       0.19507596 -0.06311139 -0.26834136 -0.1400114
000290 d1 46 8d 3c 1b 61 26 3e fc e2 16 bd 49 72 98 3c
       0.017245682 0.1624798 -0.036837563 0.018609183
0002a0 e2 b6 0b 3f 92 bb 05 3e 2d 21 ba 3e 53 6b 93 3d
       0.5457593 0.13059834 0.36353436 0.07198205
0002b0 f9 91 d3 3d 57 6c 82 be 12 89 3a 3e a5 12 ea 3d
       0.103305764 -0.25473282 0.1821635 0.114293374
0002c0 e2 84 f4 3d 90 82 4e bc 4f 4a 56 bc 45 14 12 3e
       0.11939408 -0.012604371 -0.01307924 0.14265545
0002d0 cc 73 16 3e ea c6 6a 3e 29 78 b8 bb e3 f6 fa bd
       0.1469261 0.22927442 -0.0056295586 -0.12254121
0002e0 8e b6 9a 3e c9 18 a4 3d 04 71 98 3e 78 c3 03 be
       0.30217403 0.0801254 0.29773724 -0.12867534
0002f0 50 20 70 3e 7a c3 ba bc 8b bc 49 be 13 2b 36 3e
       0.23449826 -0.022798289 -0.1970083 0.17789869
000300 45 aa c0 3e 49 17 d5 3e 3b f0 e7 bc 76 61 f0 3e
       0.37629905 0.41619328 -0.028312793 0.46949357
000310 94 63 06 3f ef b7 39 3e da d7 75 3e 11 ed 2b 3e
       0.52495694 0.18136571 0.24008122 0.16789652
000320 a8 3c c2 bc 13 84 48 3e 72 d3 16 be 8c 02 e9 3e
       -0.023710564 0.19581632 -0.14729097 0.45509756
000330 5b 6f 35 3e 00 96 b3 3e 92 cc cf 3e d8 2d 36 bd
       0.1771826 0.35075378 0.40585762 -0.044477314
000340 2d da a9 bd bf 2e 41 bb 29 3a df b9 37 99 d9 3e
       -0.08293567 -0.0029477326 -0.00042577207 0.42499706
000350 66 51 17 3d d9 9d 19 3e 16 ed 9b be e4 b2 06 3e
       0.036942862 0.1500162 -0.3045432 0.13154179
000360 b5 1f dd bd 18 1f 68 bd c5 d9 92 3e a5 5d 07 3f
       -0.10797063 -0.05667028 0.2868177 0.52877265
000370 15 a5 43 be 09 3c 96 3d d1 99 d2 bb 19 75 e3 3d
       -0.19105943 0.073356695 -0.0064270278 0.11106319
000380 96 59 8b 3e 14 ad ad 3e 8a 66 0c bc c3 cf 29 be
       0.27216786 0.3392111 -0.008569369 -0.16583161
000390 61 a9 9b 3e f2 53 1b 3e b6 d5 56 3e e7 29 aa 3e
       0.30402663 0.15168741 0.20979962 0.33235094
0003a0 57 93 0a be 5a 26 e6 3e 1d 59 3a be eb f0 b1 3e
       -0.13532768 0.44951135 -0.18198057 0.34754118
0003b0 84 dd 4a 3d 4c 8a aa 3e ef 80 08 3f 36 d0 39 3e
       0.04952766 0.33308637 0.5332174 0.18145832
0003c0 30 38 7d 3e c1 9f 9d bd 1e c1 95 3c 45 72 31 3e
       0.24728465 -0.07696486 0.018280562 0.17328747
0003d0 81 5c ed 3d ea d6 84 3e aa 05 ab 3c a4 95 50 be
       0.11589909 0.25945216 0.020876724 -0.20369583
0003e0 28 08 ce bd 24 24 5f bd cf 54 53 bc 36 59 c1 3d
       -0.100601494 -0.054477826 -0.012898638 0.09440844
0003f0 c8 5e 71 3e c0 c4 8e 3d a4 3a d4 3d 9a 25 f0 3b
       0.23571312 0.06971121 0.10362747 0.007328701

l1.bias f4 [4]
000000 2b 84 a9 3e ed 33 00 3f dc 49 fe 3e 94 89 33 3f
       0.3310865 0.5007923 0.49665725 0.701318

l2.weight f4 [4, 4]
000000 b2 ab 85 3f e1 cb 45 3f ba 74 fd bf d6 5d bc 3f
       1.0443022 0.7726422 -1.9801247 1.4716136
000010 06 a5 c6 3f f0 c0 69 3f 4c d6 d8 3f 88 80 00 c0
       1.5519111 0.91310024 1.6940398 -2.007845
000020 9c b8 8d bf 14 9e 90 bf bd fb e5 bf 2b 1e ef bf
       -1.1071963 -1.1298242 -1.796745 -1.8681082
000030 35 22 a2 bf 28 9f c2 bf 31 06 f5 3f f0 f5 05 40
       -1.2666689 -1.5204821 1.9142514 2.0931358

l2.bias f4 [4]
000000 bf fd 78 c0 8c d4 73 c0 03 82 87 40 c2 30 77 c0
       -3.8904874 -3.8098478 4.2346206 -3.862351
