train/data.pth (torch, 57144 bytes, 4 tensors)

l1.weight f4 [8, 1167]
00000000: b5f6 bdbc 072f 9abe 6ecc 18be f8a1 62bd
00000010: 6a90 cdbc 6a55 ab3c 791a 3abe 0aec 873e
00000020: 96cd 18be 9c75 19bd 8ace 933c b4a4 abbe
00000030: 3cae 103b 8683 debc cbb3 4cbe 99a0 073b
00000040: 3aee 6dbc d1b7 0bbb 3412 c5be c0e4 75be
00000050: 7297 84be 8876 70bd 3b99 c7be 65f9 143e
00000060: b7fc 89bd fde6 54be 2757 53be a662 acbe
00000070: ae9c e93a eb2d 493c 81d9 dcbe 1844 073e
00000080: bee8 a1bd 8dac 443a 20a0 eb3d 7e8b e0bc
00000090: cf43 34be c7f9 09bd 08a6 93be 267c c5bd
000000a0: 6186 81bd c1d0 40be a761 09bd 28ea eabc
000000b0: 2a43 c6be 17a2 e8bc f3f9 36be 8d4d 63bd
000000c0: 2f21 92bd 92af 99be 1925 cdbe 4c61 903b
000000d0: 83b2 ca3e 084b 9dbe 9e5e 8fbe a7b1 88bd
000000e0: 500d a33e b418 41be 7a48 753e c181 dabb
000000f0: 7426 ffbb 18c2 50be 3d26 83bd fc11 333c
00000100: d869 b93d 1d99 84be 7e97 66bd c64f bb3d
00000110: 2a38 6abc 0abe 1abe 2e8e 76be 8c43 adbc
00000120: 414f 80bc e420 333e 0b98 d8be be93 e3bc
00000130: 34a5 f6bc 41a7 b23c 94df 27be 9ac0 28bd
00000140: b8c1 acbd 3582 ccbc 0be8 ca3d f656 84bb
00000150: d8e9 58be 241e 873b ef3d 58bc ef9b 5f3e
00000160: 648d ddbd 16e7 b6be e189 90be 7a22 333e
00000170: 9cde 21bd 7031 98be 43df debc 3c8d e43c
00000180: f2fd 613d fe93 38bd 43cb cabc 6ec1 7bbd
00000190: 5181 a2be a835 ccbe 5a70 6ebe 7bef 49be
000001a0: 519b 82be 6c84 ed3d 57a9 14be 3f98 f2bc
000001b0: 4a28 ebbd b499 0dbe 850c dcbc 1b9c b7bd
000001c0: 8a39 1a3e 36a3 ebbb fd2c 7abe e208 a0be
000001d0: b4b7 303e 1b66 96be 0d4e 24bf 8896 16be
000001e0: 0cec 4d3e 65bc 183e d15a ab3b 0d90 223e
000001f0: d2f3 0abf bf8a 40bb 7ee5 6a3b e9cc 6cbd
00000200: aeff 71be f47f 6dbd a117 3e3e 5ec2 bdbd
00000210: 3bd6 11be 17b0 633c f61b 9c3e 39ab 023e
00000220: 5961 82be 37a6 81bd f489 75bc 34ba 57bd
00000230: d8f4 0ebc 5ed5 75be f4f8 f7bc a15e 66be
00000240: bc76 f5bb ac30 0abe 1c75 1d3c 0fb0 173e
00000250: f467 c2bd 5ce8 d6bd c4c4 143c f106 9abd
00000260: f43c 24bd fef3 77be 5485 f7bc 0141 11be
00000270: 9565 88be f8c5 cbbe 4306 3abe cd94 90bd
00000280: d713 a8bc 07ec ecbc aec3 c33d 329f 93be
00000290: 1043 12be 9c67 1f3e 5cce 68bd 739c 6d3d
000002a0: 23fe 8ebe 9063 65bd 0665 cbbe 8be1 bcbe
000002b0: 90a1 e8be 1c44 153c 3626 edbc 3e67 e6be
000002c0: 756c 1a3e 0ab8 00bd 0bb0 91bd 88f5 3138
000002d0: a60e 0bbc b86f 8fbe dabf ea3d 484a 1ebd
000002e0: 29c2 09be e7bc d53b 1993 29be 1e16 cbbd
000002f0: d95c adbe 0d2a acbc b04c 84be 97e8 95be
00000300: 92ae 79be d56f 4bbe 3f4a 73be b0fe 553e
00000310: 76b9 82bd d4ed ab3d 64b4 d7be 551a dfbe
00000320: 659e 07bf 6c3f c73d 3d7a e8bd 5679 60be
00000330: dd4c 84be bab5 0cba 188b 9dbc f179 1bbe
00000340: 5cd4 35bc 1c19 083e 055d 8f3c 3841 18be
00000350: 6fba b6be 46ae 1c3d 885e 033e 4e28 05be
00000360: 436e 0b3e 739c 07be f0dd 0f3d 607f 9abd
00000370: 1fe8 b2bd 2236 823e 389d 10bb 6b10 1dbe
00000380: 6329 a63d 8bdb 4ebe 5a8f 03bf ecf1 7abe
00000390: 348c 1c3e 0341 023e 4c24 16bc ff96 1ebd
000003a0: d4f9 efbd 39a7 54be 61c2 6e3e 7489 803c
000003b0: 089c 923b 5982 f5bc 090f b7be 6bec d8bc
000003c0: 91d0 37be bc74 58be fba8 9bbc 27e6 74bc
000003d0: 5cc5 97be b63d 13be 7d94 473c 2b9d 04bd
000003e0: 7a76 09bc ed3f 0b3e c547 50bc 15d8 d53b
000003f0: 0ab1 e4bd 2677 1a3e 6bbb aabe a9d7 09be
-0.023188928 -0.30114004 -0.14921734 -0.055330247 -0.025093276 0.020914752 -0.18174161 0.2654727
-0.14922175 -0.037465677 0.018042821 -0.33524096 0.0022076508 -0.027162325 -0.1999046 0.002069509
-0.01452213 -0.002131928 -0.3849045 -0.24013042 -0.25896794 -0.05870679 -0.38984093 0.14548261
-0.06737655 -0.2079124 -0.20638715 -0.33669013 0.0017823183 0.012279014 -0.43134692 0.1320957
-0.0790572 0.0007502519 0.11505151 -0.027410265 -0.17603992 -0.03368547 -0.2883761 -0.0964282
-0.06324459 -0.18829633 -0.033540394 -0.028676108 -0.38723117 -0.028397603 -0.17868786 -0.05549388
-0.071352355 -0.30016762 -0.40067366 0.00440613 0.3958932 -0.30721307 -0.28001875 -0.066745095
0.31846094 -0.1885708 0.23953429 -0.0066683 -0.0077865664 -0.20386541 -0.06403778 0.010929581
0.09053391 -0.25898066 -0.056296818 0.09146075 -0.014295617 -0.15111557 -0.24077675 -0.021150373
-0.015662791 0.17493016 -0.423035 -0.02778041 -0.030108072 0.021808269 -0.16393882 -0.041199304
-0.084353864 -0.024964431 0.0990754 -0.004038687 -0.21182954 0.004123466 -0.01319836 0.21836828
-0.10817984 -0.3572318 -0.28230193 0.1749362 -0.039518937 -0.29725218 -0.027206069 0.027899377
0.05517382 -0.04506301 -0.024755126 -0.061463766 -0.31739286 -0.39884686 -0.23285046 -0.19720261
-0.25509122 0.11597523 -0.14517723 -0.029613612 -0.11482294 -0.13828164 -0.026861439 -0.08965322
0.15061012 -0.007191087 -0.24431224 -0.31256777 0.17257577 -0.29374775 -0.64181596 -0.1470586
0.20109576 0.14915617 0.005229332 0.15875264 -0.5427829 -0.0029379574 0.0035842354 -0.057812605
-0.2363269 -0.057983354 0.18563701 -0.09265588 -0.14241879 0.013896964 0.30490083 0.12760629
-0.25464895 -0.06330531 -0.014986504 -0.05266781 -0.0087253675 -0.24007174 -0.030270077 -0.22497036
-0.007490961 -0.1349513 0.009610441 0.14813255 -0.09492484 -0.10493538 0.009080116 -0.07520855
-0.040097192 -0.2421417 -0.030214943 -0.14184953 -0.2664 -0.39799476 -0.18166451 -0.070596315
-0.020517273 -0.02892114 0.09558807 -0.28832394 -0.14283395 0.15566868 -0.056837425 0.05801053
-0.27928266 -0.056003153 -0.39725512 -0.36890826 -0.45435762 0.009110477 -0.028948884 -0.45000643
0.15080436 -0.031425513 -0.07113656 4.2428757e-05 -0.008487379 -0.28014922 0.11462374 -0.03864506
-0.13452972 0.006522763 -0.1656002 -0.09916328 -0.338599 -0.021016145 -0.25839758 -0.29279014
-0.24383 -0.1986688 -0.23758791 0.20897937 -0.0638303 0.083949715 -0.42129815 -0.43574777
-0.52976066 0.09728894 -0.1135144 -0.21921286 -0.25839892 -0.00053676555 -0.019231364 -0.15183236
-0.011097994 0.13290828 0.01750041 -0.14868629 -0.35689113 0.038252138 0.1282903 -0.13003656
0.1361628 -0.13243274 0.035123765 -0.07543826 -0.0873568 0.25431925 -0.0022066366 -0.15338294
0.08113363 -0.20200936 -0.5139061 -0.24506348 0.15287858 0.12720113 -0.009163927 -0.03871822
-0.11717573 -0.20766915 0.23316337 0.015690543 0.004474167 -0.029969381 -0.35753658 -0.02647992
-0.17950656 -0.2113828 -0.019001475 -0.014947451 -0.2964276 -0.1437901 0.012181398 -0.03237645
-0.008390063 0.13598605 -0.012712424 0.006526003 -0.1116658 0.15084514 -0.33346114 -0.13461174

l1.bias f4 [8]
00000000: 75db 463f 9340 723e 3129 6b3e 2f63 3c3f
00000010: 4dca 993e 9981 2d3f 0cd1 af3e e833 543f
0.77678615 0.23657446 0.22964932 0.7358884 0.30037156 0.67775875 0.34339178 0.828917

l2.weight f4 [4, 8]
00000000: 2279 86bf 1dc6 81bf aaa6 91bf 6d23 a93f
00000010: 8e0f 56bf d319 7fbf f368 2abf e757 6cbf
00000020: cb99 96bf 70e3 a03f 35cb 9f3f 18c8 43bf
00000030: 814e f93e f76c 773f 7af6 df3d 196b 66bf
00000040: 9a48 bb3f 614f 5fbf 416e 86bf 7cc0 97bf
00000050: b86e adbf 83f4 9e3f 8aa8 a3bf 4869 5b3f
00000060: 9064 9bbf 310c 57bf d3ed 88bf 299e 8ebf
00000070: 4e44 943f da1b 80bf 1e35 a43f 9120 603f
-1.0505717 -1.0138584 -1.1378987 1.3213936 -0.83617485 -0.9964878 -0.6656639 -0.9232163
-1.1765684 1.2569408 1.2483889 -0.76477194 0.48692706 0.9665064 0.109356835 -0.9000717
1.4631531 -0.872305 -1.0502397 -1.1855617 -1.3549414 1.2418369 -1.2785809 0.8570752
-1.2140064 -0.8400298 -1.0697578 -1.1142017 1.1583345 -1.00085 1.282871 0.8754969

l2.bias f4 [4]
00000000: 9383 2d3f 1fd3 65be 0117 ba3e 0864 e23d
0.6777889 -0.22443818 0.36345676 0.11054236
