train/data.pth (torch, 62008 bytes, 4 tensors)

l1.weight f4 [8, 1271]
0	0x3d4590ec	0.04823391
1	0xbddcfa97	-0.10789984
2	0xbe073ad3	-0.13206033
3	0xbe17cb2d	-0.14823599
4	0x3dc8754b	0.09787997
5	0xbe4b862e	-0.19875404
6	0xbe58f174	-0.21185857
7	0x3e45c8d9	0.19314899
8	0xbe081615	-0.13289674
9	0x3e1128cc	0.14175719
10	0xbccf36a0	-0.025294602
11	0x3e5caa95	0.21549447
12	0xbbd93652	-0.00662879
13	0x3d596346	0.05307319
14	0xbe159bed	-0.14610262
15	0x3d1ec478	0.038761586
16	0xbe57db10	-0.2107966
17	0x3e035b8e	0.12827894
18	0x3e18a20c	0.14905566
19	0xbbd53d30	-0.0065075383
20	0x3ddc1d1f	0.10747742
21	0x3e38666d	0.18007822
22	0x3dbe4bc9	0.092917986
23	0x3e480c03	0.19535832
24	0x3e1689d6	0.14701018
25	0x3daa8ba9	0.08327419
26	0x3e8628fb	0.2620314
27	0x3da4e7e7	0.08052044
28	0x3d308511	0.043095652
29	0x3e2e2df4	0.17009717
30	0xbcbe243c	-0.023210637
31	0xbc22620d	-0.009911072
32	0x3e92fe8f	0.28709838
33	0x3ec7e46b	0.39041457
34	0xbe01f471	-0.12690903
35	0xbdcf145a	-0.10111304
36	0x3edc6e68	0.43052983
37	0x3e18de41	0.14928533
38	0x3e4a223d	0.19739623
39	0x3dbc4b4c	0.09194049
40	0x3e64da3f	0.2234888
41	0x3d092e80	0.03349161
42	0x3d9a0df8	0.075221956
43	0x3e28fb80	0.1650219
44	0x3e0fe1ca	0.14050975
45	0xbd856215	-0.06512848
46	0x3e1159a6	0.14194354
47	0xbe156b7b	-0.14591782
48	0xbd16a7b8	-0.036781043
49	0x3d4284e8	0.04749003
50	0x3e41e280	0.18934059
51	0xbea452c3	-0.32094392
52	0xbec2b510	-0.38028765
53	0xbdbf01d4	-0.093265206
54	0x3ecddd19	0.40207747
55	0xbd9f7bce	-0.07787286
56	0x3e83f37c	0.257717
57	0xbe4c9bcf	-0.19981311
58	0xbdbe7f94	-0.09301677
59	0xbe1dbf92	-0.1540511
60	0x3ea3a65e	0.31962866
61	0xbe649534	-0.22322541
62	0x3e8fe04c	0.28100812
63	0xbd80a91a	-0.062822536
64	0x3cce3008	0.025169387
65	0xbe7e7647	-0.24849807
66	0x3e41d61d	0.18929334
67	0x3e0a2f1b	0.13494532
68	0x3e846401	0.25857547
69	0x3ed1c8c9	0.409735
70	0x3e2b5d77	0.16734873
71	0x3e4b3186	0.1984311
72	0xbda45a55	-0.08025042
73	0xbe64136e	-0.22273037
74	0x3e2946fd	0.16530986
75	0xbd4843e6	-0.048892878
76	0xbd362673	-0.04447026
77	0x3e2b2b40	0.16715717
78	0x3e9f9c2a	0.3117383
79	0x3da7edf5	0.081996836
80	0x3e313dc2	0.17308715
81	0xbd6e89a1	-0.058236722
82	0x3d8db557	0.069193535
83	0x3dd84277	0.10559552
84	0x3e389f20	0.18029451
85	0xbe11c45f	-0.14235066
86	0x3e4c7905	0.1996804
87	0x3c930608	0.017947212
88	0xbe12cce5	-0.14335974
89	0xbccb6ef6	-0.024833184
90	0xbd145b3a	-0.036219813
91	0x3e681c53	0.22667055
92	0xbe623166	-0.22089157
93	0x3e8ea31f	0.27858827
94	0xbe66244a	-0.2247478
95	0x3e6ddd05	0.23228844
96	0x3e881488	0.26578164
97	0x3e5b2ea4	0.2140451
98	0x3df22657	0.11823719
99	0x3e3a46d9	0.18191089
100	0x3e13a943	0.14420037
101	0xbc379bc5	-0.011206572
102	0xbd5cae76	-0.053877316
103	0xbdc5f3f1	-0.09665669
104	0x3dddff28	0.10839683
105	0x3db80e95	0.08987156
106	0xbe234c8b	-0.15947168
107	0xbed7cf68	-0.42150426
108	0x3dc7e80c	0.09761056
109	0x3e1be0ca	0.15222469
110	0x3e113ee7	0.14184152
111	0xbe99f4c3	-0.3006955
112	0x3e256d0c	0.1615488
113	0xbcc159b3	-0.023602342
114	0xbcfce254	-0.03086964
115	0xbcb7a3c1	-0.022416951
116	0xbe86cc11	-0.26327565
117	0x3e0fe3dc	0.14051765
118	0xbebd9a49	-0.37031773
119	0x3e04c59a	0.12966004
120	0x3da75901	0.08171273
121	0x3e0e3b0b	0.1388971
122	0x3d4e27db	0.050330978
123	0xbe2d45d2	-0.16921166
124	0x3dc26e2f	0.09493672
125	0xbe8049a6	-0.2505619
126	0x3e82d7da	0.25555307
127	0x3d8e6c63	0.06954267
128	0x3de967a5	0.11396722
129	0x3e1089cb	0.14115064
130	0x3e7e7afb	0.24851601
131	0x3e2c0d6f	0.16802
132	0xbd58385d	-0.052788127
133	0x3e9443a0	0.28957844
134	0x3e4fdb40	0.20298481
135	0xbdade623	-0.08491161
136	0x3e4fa3b7	0.20277296
137	0xbcc5d8ce	-0.024151232
138	0xbe3ff7cd	-0.18746872
139	0xbe11664e	-0.14199182
140	0x3e87f2c1	0.26552394
141	0x3e30ea95	0.17276986
142	0x3e2de0aa	0.16980234
143	0x3d6eed7e	0.05833196
144	0x3de5c48c	0.11219129
145	0xbd9f0023	-0.07763698
146	0xbd483686	-0.048880123
147	0x3e524f8c	0.20538157
148	0x3dcd9006	0.10037236
149	0xbe394ca1	-0.18095638
150	0x3d8835a3	0.066508554
151	0x3e75a7e0	0.2398982
152	0xbd9636e4	-0.07334688
153	0x3e45362b	0.19258945
154	0xbe19bfcc	-0.15014571
155	0x3d08eec2	0.033430822
156	0xbe324116	-0.17407641
157	0xbdff2d2c	-0.12459788
158	0x3d53975d	0.051658023
159	0x3e12d06f	0.14337324
160	0x3e8eeca1	0.2791491
161	0xbe884314	-0.26613677
162	0x3e1dc898	0.15408552
163	0x3e4ff1b4	0.20307046
164	0xbeacfd7e	-0.3378715
165	0xbe327741	-0.17428304
166	0x3e03c513	0.12868147
167	0xbe04bb74	-0.12962133
168	0xbebaa4b2	-0.36453778
169	0x3e593d1a	0.21214715
170	0x3e6859e8	0.22690547
171	0x3e3fe034	0.1873787
172	0x3e1a39e2	0.15061143
173	0xbe92ca24	-0.28669846
174	0xbe3b58c4	-0.1829558
175	0xbe3e2c9c	-0.18571705
176	0xbe5df057	-0.21673714
177	0xbedc96b5	-0.4308373
178	0xbeb6cfce	-0.35705417
179	0x3e6403ae	0.22267029
180	0x3dd91ecd	0.10601578
181	0xbe2d0801	-0.16897584
182	0xbe0f7785	-0.14010437
183	0xbeb785eb	-0.3584436
184	0xbe955ab2	-0.29170758
185	0xbe8c334a	-0.2738288
186	0xbe95adf4	-0.29234278
187	0xbdba4a84	-0.09096244
188	0xbdb7323d	-0.08945129
189	0xbe810aa1	-0.25203422
190	0x3d8a102f	0.06741368
191	0x3e0ccb0b	0.1374933
192	0x3dd73706	0.10508542
193	0x3e5563a6	0.20838794
194	0xbe073ad0	-0.13206029
195	0xbded11ca	-0.115756586
196	0x3e637818	0.22213781
197	0x3dc345fc	0.09534833
198	0x3e845cdd	0.258521
199	0xbe982adf	-0.29720208
200	0xbeb36ad4	-0.3504244
201	0x3e6f3551	0.23360182
202	0x3dc5d9eb	0.09660705
203	0xbe530382	-0.20606807
204	0xbb54363e	-0.0032380964
205	0x3e5c321a	0.21503487
206	0x3db10eb1	0.0864538
207	0x3e10a84e	0.14126703
208	0x3e5f1950	0.21787
209	0x3e82ad93	0.25523052
210	0x3d9cec9c	0.07662317
211	0xbe2b35b0	-0.16719699
212	0xbe806ef0	-0.2508464
213	0x3e34bb06	0.17649469
214	0x3e253e4a	0.16137043
215	0xbe05a765	-0.13052137
216	0x3bf411b0	0.0074483976
217	0xbe2db76c	-0.16964501
218	0x3dc07d00	0.09398842
219	0xbe4c4a1a	-0.19950143
220	0x3ddbf629	0.10740311
221	0x3e25dd20	0.16197634
222	0x3f0c2623	0.5474569
223	0x3df036d1	0.117292054
224	0xbe541977	-0.20712839
225	0xbe5366d5	-0.20644696
226	0x3e3c6d10	0.18400979
227	0xbeacc49e	-0.33743757
228	0x3d91ad5b	0.07113143
229	0x3d90ea90	0.07075989
230	0x3e069a91	0.131449
231	0x3e60b70f	0.21944831
232	0x3de25d4d	0.11052952
233	0xbe3edc9d	-0.18638845
234	0x3dcd40dc	0.100221366
235	0xbd29e66a	-0.041479506
236	0x3ead791f	0.3388147
237	0x3ec07070	0.37585783
238	0xbe9faa85	-0.31184784
239	0x3e5bfc00	0.21482849
240	0x3e16994a	0.14706913
241	0xbdf983f2	-0.1218337
242	0x3e8148c1	0.2525082
243	0x3e938ac4	0.28816807
244	0xbeaf2671	-0.34209016
245	0x3e2efbf7	0.17088304
246	0x3e89ad48	0.26890016
247	0x3e965fdf	0.2937002
248	0x3dc8bfee	0.09802233
249	0xbdf66fbc	-0.120330304
250	0xbe4d491a	-0.20047417
251	0xbea860dc	-0.32886398
252	0xbbb34e1d	-0.0054719583
253	0xbde07e85	-0.10961632
254	0xbe744287	-0.23853503
255	0xbe6cdb73	-0.23130588

l1.bias f4 [8]
0	0x3f1ad810	0.60485935
1	0x3f210c55	0.6290944
2	0x3e8b0708	0.27153802
3	0x3f07bad7	0.5301947
4	0x3ee82d18	0.45346904
5	0x3f3eee06	0.74581945
6	0x3e89d374	0.26919138
7	0x3f87262f	1.0558528

l2.weight f4 [4, 8]
0	0xbf7702b2	-0.9648849
1	0xbf87806e	-1.0586069
2	0xbf20e7b2	-0.6285354
3	0x3f9678db	1.1755632
4	0xbf81e554	-1.014811
5	0x3f8fbf38	1.123023
6	0xbf3f8bdf	-0.748228
7	0xbf91b25b	-1.1382555
8	0x3f8fa00f	1.1220721
9	0x3f622c4c	0.8834884
10	0x3f99e2b6	1.2022312
11	0xbee39a22	-0.44453532
12	0xbfa16f1c	-1.2612033
13	0xbfa3a8de	-1.2785909
14	0x3f80139c	1.0005984
15	0xbfb94333	-1.4473633
16	0x3f76da73	0.9642708
17	0x3f7de769	0.9918123
18	0xbfa10d14	-1.2582116
19	0xbf92054d	-1.1407868
20	0xbf6d9707	-0.92808574
21	0x3f408951	0.7520953
22	0xbfb795e6	-1.434262
23	0x3f902047	1.125985
24	0xbf9507e1	-1.164303
25	0xbfac27cc	-1.3449645
26	0x3f5177fc	0.81823707
27	0xbdb83c1d	-0.08995841
28	0x3f9ffee2	1.2499659
29	0xbf341ff4	-0.70361257
30	0x3f0d275d	0.5513819
31	0x3f62d4f5	0.88606197

l2.bias f4 [4]
0	0x3ef9600f	0.487061
1	0x3e833957	0.25629684
2	0x3e31a673	0.17348652
3	0xbe8ffa2f	-0.28120562
