train/data.pth (torch, 57784 bytes, 4 tensors)

l1.weight f4 [8, 1181]
-0.033670716 0.31694892 0.099414475 0.13273138 -0.14169203 0.17844838 0.2508354 0.3321769
0.20409378 -0.15987621 0.11982086 -0.0385423 0.009988548 0.17730293 0.005601165 -0.13957816
-0.09209858 0.117678136 0.099529825 -0.115855 0.012978292 -0.055878837 -0.0063769966 0.016579797
-0.24194367 -0.018223582 -0.023134978 -0.14533067 0.08593888 0.0920787 0.23486382 -0.35951942
0.21013887 0.09212757 -0.27932948 -0.16356514 -0.17440802 -0.08408273 -0.18171124 0.03046994
0.0033221913 -0.17099518 -0.09243788 0.13209158 0.15184799 0.16084144 0.17017668 -0.023457102
-0.1727758 0.38939837 0.33886224 0.07257392 -0.28461283 0.27402112 0.260057 0.17659345
-0.08411268 0.17620829 -0.006545179 0.12972334 0.009779805 0.18121025 -0.15992948 -0.018871585
-0.2065829 -0.27497754 -0.13219407 0.2885093 0.08091415 0.15538277 -0.05751727 0.10867601
0.17513542 -0.047333427 -0.24363226 -0.016635658 0.035998575 0.09204395 -0.006501257 -0.10576488
-0.11895432 0.17543906 -0.038565844 -0.00021272509 0.14310955 0.07529817 0.14848222 -0.006063884
0.17620327 -0.22169061 0.20307116 -0.10888987 -0.09994447 -0.18086529 -0.029811475 -0.15663399
-0.07835328 0.08895686 0.11435491 0.24251366 0.0021323245 0.22112608 0.2313981 -0.033884186
-0.15295354 -0.08347422 0.22893901 -0.076498926 0.04013566 -0.01616063 0.0733957 0.18985315
-0.07521692 0.119600885 0.0095591005 -0.0023615872 0.005544907 -0.07244483 0.22634338 0.20646971
-0.23542875 -0.012250344 -0.1808666 -0.005110673 -0.11673958 -0.066060916 0.112464815 -0.25815603
-0.17504011 0.07692955 -0.0162507 0.06183183 0.14540151 0.13133784 -0.09549185 -0.076758705
-0.14329621 -0.033993058 -0.0854092 0.1912475 0.11494055 -0.06972208 -0.037826207 0.16697505
-0.04680148 -0.10031654 0.116319194 -0.035050478 0.17016827 -0.10212105 0.17087671 0.13833453
-0.011857288 0.04298663 -0.20178449 0.26829398 -0.1631093 -0.09088108 0.40378684 0.14531457
-0.054099 0.1376674 0.21239302 -0.07362774 -0.13834962 -0.07243173 0.019241571 0.29084757
0.3059075 0.21225785 0.21861155 0.35006422 0.40002072 -0.024922479 -0.05310665 0.14621478
0.41332585 0.16117084 0.18109845 0.26075035 0.1436041 0.103051655 0.19576032 -0.005541215
-0.01401998 0.014705045 0.0067471676 0.1189258 0.25087675 -0.015537932 -0.01695905 -0.18783638
0.28803867 -0.13438864 0.0049557267 0.19994955 0.1480236 -0.009583006 -0.0530981 -0.00028725684
-0.24187793 -0.10712843 0.024802385 0.22728413 0.2933933 -0.09235985 -0.16407874 0.1608975
0.14305654 0.1805983 0.032112796 0.15768024 -0.07533771 -0.0758348 -0.40410218 0.003843385
0.16143726 -0.0049448726 0.16431975 -0.0027812799 0.043682966 -0.014274166 -0.09583821 -0.09694165
0.15158893 -0.005110371 -0.18106031 -0.27386183 0.3467321 -0.17326044 0.023394978 0.17013553
-0.2420158 -0.2579062 0.33474672 -0.11928932 0.14925729 0.15856856 0.2123838 0.23869376
0.10093558 0.2811916 0.20123422 0.17536046 -0.0040426576 0.06318693 0.07131037 -0.010802777
0.19495696 0.09017381 -0.009486562 0.12727976 -0.06639367 -0.12753765 -0.062722184 0.55764484
00000000: 4eea 09bd 2147 a23e d199 cb3d bcea 073e
00000010: b717 11be 2cbb 363e 7f6d 803e 1713 aa3e
00000020: f6fd 503e 97b6 23be a464 f53d 88de 1dbd
00000030: 02a7 233c e68e 353e fa89 b73b 94ed 0ebe
00000040: 2e9e bcbd 3c01 f13d 4bd6 cb3d 6345 edbd
00000050: e7a2 543c 35e1 64bd 20f6 d0bb 5bd2 873c
00000060: 15c0 77be 9f49 95bc 9185 bdbc 90d1 14be
00000070: b900 b03d c293 bc3d 2480 703e ee12 b8be
00000080: a52e 573e 61ad bc3d 4604 8fbe 9f7d 27be
00000090: 0498 32be 9133 acbd 8312 3abe 189c f93c
000000a0: 1fb9 593b 5c19 2fbe 1250 bdbd 0443 073e
000000b0: 0a7e 1b3e 9eb3 243e cc42 2e3e 1c29 c0bc
000000c0: 24ec 30be 395f c73e 5a7f ad3e a3a1 943d
000000d0: c6b8 91be 7f4c 8c3e 3126 853e ead4 343e
000000e0: 4543 acbd f26f 343e f178 d6bb 32d6 043e
000000f0: 7a3b 203c 2e8f 393e 8ec4 23be 9598 9abc
00000100: 788a 53be dbc9 8cbe e25d 07be 7eb7 933e
00000110: 51b6 a53d a91c 1f3e 3b97 6bbd 8791 de3d
00000120: b356 333e b2e0 41bd bc7a 79be 8147 88bc
00000130: 3e73 133d 8a81 bc3d 7f08 d5bb 429b d8bd
00000140: 539e f3bd 4ca6 333e 38f7 1dbd f50e 5fb9
00000150: 4f8b 123e ed35 9a3d b90b 183e 8cb3 c6bb
00000160: a16e 343e dd02 63be e3f1 4f3e a701 dfbd
00000170: b0af ccbd c034 39be 3237 f4bc a964 20be
00000180: af77 a0bd 042f b63d e832 ea3d 8055 783e
00000190: 78be 0b3b e06e 623e a0f3 6c3e 25ca 0abd
000001a0: da9f 1cbe 88f4 aabd fd6e 6a3e 78ab 9cbd
000001b0: 4a65 243d 4c63 84bc 7c50 963d dd68 423e
000001c0: 540b 9abd 4ff1 f43d c69d 1c3c dcc4 1abb
000001d0: 0db2 b53b f45d 94bd 8fc6 673e cc6c 533e
000001e0: 3c14 71be abb5 48bc 1835 39be 6f77 a7bb
000001f0: 2915 efbd f24a 87bd f453 e63d 072d 84be
00000200: b73d 33be 3d8d 9d3d 3020 85bc 5f43 7d3d
00000210: 22e4 143e 6d7d 063e 3b91 c3bd ab33 9dbd
00000220: 3ebc 12be 4e3c 0bbd 05eb aebd 62d6 433e
00000230: f365 eb3d 73ca 8ebd a7ef 1abd 82fb 2a3e
00000240: e9b2 3fbd c272 cdbd c238 ee3d 1791 0fbd
00000250: 9740 2e3e d724 d1bd 4efa 2e3e 91a7 0d3e
00000260: 1245 42bc c012 303d 98a0 4ebe d45d 893e
00000270: 2006 27be dc1f babd 26bd ce3e 58cd 143e
00000280: ea96 5dbd aff8 0c3e 8e7d 593e 24ca 96bd
00000290: 86ab 0dbe 1657 94bd 80a0 9d3c f9e9 943e
000002a0: e89f 9c3e 1f5a 593e b5db 5f3e 9e3b b33e
000002b0: 84cf cc3e 3a2a ccbc 5c86 59bd 54b9 153e
000002c0: 729f d33e f809 253e df71 393e 1281 853e
000002d0: f40c 133e bf0c d33d 6575 483e 1593 b5bb
000002e0: 0fb4 65bc 6eed 703c 5817 dd3b 5f8f f33d
000002f0: eb72 803e cf92 7ebc b5ed 8abc 2e58 40be
00000300: ce79 933e 2d9d 09be a663 a23b 93bf 4c3e
00000310: 8093 173e 0a02 1dbc 657d 59bd f69a 96b9
00000320: d9ae 77be 2666 dbbd 5f2e cb3c 2cbd 683e
00000330: a637 963e 2927 bdbd 4204 28be 50c2 243e
00000340: 6a7d 123e c3ee 383e b588 033d ee76 213e
00000350: a84a 9abd 474f 9bbd 7be6 cebe 4de1 7b3b
00000360: cf4f 253e 9908 a2bb 7043 283e 2246 36bb
00000370: e9ec 323d 31de 69bc d346 c4bd 5889 c6bd
00000380: 213a 1b3e e674 a7bb e067 39be 9e37 8cbe
00000390: df86 b13e 2f6b 31be d3a6 bf3c 0238 2e3e
000003a0: fdd2 77be 480c 84be ec63 ab3e f64d f4bd
000003b0: e7d6 183e cc5f 223e 247b 593e 236c 743e
000003c0: 50b7 ce3d 58f8 8f3e 5810 4e3e b191 333e
000003d0: 4578 84bb 2668 813d 2c0b 923d 21fe 30bc
000003e0: cca2 473e 0cad b83d 866d 1bbc a055 023e
000003f0: 68f9 87bd 3b99 02be 7d74 80bd d0c1 0e3f

l1.bias f4 [8]
0.3844886 0.71455836 0.41554072 0.41306987 0.5558953 0.70556575 0.45288178 0.9673653
00000000: b1db c43e 4ced 363f c1c1 d43e e57d d33e
00000010: 284f 0e3f f59f 343f 1fe0 e73e 41a5 773f

l2.weight f4 [4, 8]
0.71743345 0.7450643 0.5587586 0.70078325 0.9028954 -1.0801873 -1.2301513 -1.1559298
-0.78378147 -1.1539974 -0.7127861 1.2986287 -0.91188264 1.0787226 0.16638584 -1.2842172
-0.9491172 1.2503704 -1.0881022 -1.193621 0.21518026 0.80311143 -1.6644192 0.93946606
1.217458 -0.2751365 1.1038055 -1.0480926 -1.0473901 -0.42050534 1.2019567 0.1441092
00000000: b8a9 373f 89bc 3e3f ce0a 0f3f 8866 333f
00000010: 2724 673f 9443 8abf 9975 9dbf 82f5 93bf
00000020: e7a5 48bf 30b6 93bf 2679 36bf 7739 a63f
00000030: 2471 69bf 9513 8a3f 0d61 2a3e 3b61 a4bf
00000040: 58f9 72bf 230c a03f ef46 8bbf 93c8 98bf
00000050: 3758 5c3e b698 4d3f b00b d5bf d980 703f
00000060: aad5 9b3f b1de 8cbe 8049 8d3f e627 86bf
00000070: e110 86bf 7a4c d7be b8d9 993f 5d91 133e

l2.bias f4 [4]
-0.4083 0.43562934 0.043477457 -0.65937513
00000000: b30c d1be cf0a df3e 6b15 323d cfcc 28bf
