train/data.pth (torch, 54712 bytes, 4 tensors)

l1.weight f4 [8, 1118]
000000 d3 c5 19 bc ba 34 4c be 8d ed c1 bd d1 be 8a bc
       -0.009385544 -0.19941989 -0.09469137 -0.016936691
000010 69 58 96 bc 44 ab 76 bc ce a5 36 be de a3 0a 3e
       -0.018352704 -0.015055481 -0.17836687 0.13539073
000020 a3 1d 71 bd ff 47 04 bd 4f 5f 0e bc ee 4a 3d be
       -0.058866154 -0.032295223 -0.0086897155 -0.18485615
000030 fa 76 a6 bc 50 dc ff bc cf 9d aa bd 29 6a a4 ba
       -0.020320404 -0.031232983 -0.08330881 -0.0012543845
000040 d3 a6 8b be b1 7b 84 bc 14 3f 52 be 1a 9a 2a be
       -0.27275714 -0.016172262 -0.20531875 -0.16660348
000050 37 04 f5 bd 4c e3 82 be 66 0e ab 3d 9f dc 0d be
       -0.119636945 -0.2556404 0.08352356 -0.13853692
000060 2d fa 12 be 6c 08 2b bd 3b 5a 87 be 2e 5e 8e bb
       -0.14353247 -0.04175608 -0.26436028 -0.004344723
000070 d3 65 e0 bc ba aa 80 be c8 8e d0 bc 13 d4 a2 3e
       -0.027392304 -0.25130254 -0.025458708 0.31802425
000080 0b 26 04 3f f0 9e 26 bc 7a 11 db 3b 22 c6 44 be
       0.5162055 -0.01016973 0.006685433 -0.19216207
000090 cc 8f 23 bd 5e be 5b be ed cf 36 bd 41 fb 01 bd
       -0.039932057 -0.21459338 -0.044631887 -0.031733755
0000a0 fe 14 0b be 91 70 84 bd c7 7e c4 3e 85 2b df be
       -0.13582227 -0.06466783 0.38377973 -0.4358789
0000b0 1d 29 1e 3f 4f 92 2c 3e 49 7c 7f bd 86 d5 f7 bd
       0.61781484 0.16852687 -0.062374387 -0.12101273
0000c0 2f 43 e6 3e 0f a2 91 be e9 d3 10 3e 8d ef a1 3e
       0.44973132 -0.28443953 0.14143337 0.31628075
0000d0 c4 ca 59 be e1 de f4 3d bb bc 04 3f c4 7d 88 3e
       -0.21268755 0.11956573 0.5185048 0.26658452
0000e0 55 2b dd bd 60 4c 6a 3e 27 94 a3 3e 87 2d bf bc
       -0.107992806 0.22880697 0.3194897 -0.023337139
0000f0 58 61 08 be 8e d2 03 be ca e3 80 bc 14 4e 99 3c
       -0.13318384 -0.12873289 -0.015733618 0.018713988
000100 de da 09 be a1 f1 0e be 66 ae 8b 39 19 b9 92 3e
       -0.13462397 -0.13959362 0.00026642083 0.28656843
000110 f3 4f 1f be dd e3 0d be ba 28 d6 3e 54 07 18 3f
       -0.15557842 -0.13856454 0.41827947 0.5938618
000120 e5 46 be 3d e4 4a 85 be fd 61 a6 bc 30 81 49 bd
       0.09290866 -0.260337 -0.020310396 -0.04919547
000130 b4 a5 7b 3e d7 37 2c be 0c f6 ae bc a3 16 1e be
       0.2457493 -0.16818176 -0.021357559 -0.15438323
000140 39 0c e6 3e f8 c6 0c 3e a1 2a 0b 3d 5e 1e 0d be
       0.449312 0.13747776 0.0339762 -0.13781115
000150 39 e6 d5 3d b5 d5 8f 3e 24 98 31 3e 2e 95 fc bd
       0.10444302 0.28092733 0.17343193 -0.12333141
000160 64 45 9b be b9 c8 16 be b8 70 16 3e 2d c1 50 bb
       -0.30326378 -0.14725007 0.14691436 -0.0031853423
000170 17 00 87 be ae 19 a8 3b ec fb 29 bc 3d fb 9c 3d
       -0.26367256 0.0051300144 -0.010375004 0.076651074
000180 01 4f ea 3d c1 37 c3 3e 97 f4 30 bd a5 da 5d be
       0.1144085 0.38128474 -0.04320201 -0.21665438
000190 88 20 0e be a4 67 24 be 61 66 b7 3d 3b bb f0 3e
       -0.13879597 -0.16055161 0.08955074 0.47017846
0001a0 1a 2a 92 be c5 ad f8 3d 7d ed e2 3d fa 22 9a 3e
       -0.28547746 0.12142519 0.110804535 0.3010481
0001b0 a5 d6 43 3f 99 27 bd 3d 51 3b e1 ba cb 97 e3 bd
       0.76499397 0.09236068 -0.0017183815 -0.111129366
0001c0 3f 62 66 be a3 6d 30 3e fd 68 33 be 18 24 c8 be
       -0.22498415 0.17229323 -0.17520519 -0.39090037
0001d0 f1 d6 b6 bd f6 97 04 3e e3 25 f3 3d 36 24 b1 3c
       -0.089277156 0.12948593 0.11872461 0.021623712
0001e0 ed 54 ef 3d 9a 97 f1 be 26 1b 30 bc 6f ff 13 3e
       0.1168612 -0.47185975 -0.01074866 0.14452909
0001f0 f6 f6 90 be 95 6c 49 be ff 4b 10 bc f9 c9 12 3e
       -0.28313416 -0.19670327 -0.008807181 0.14334859
000200 53 19 a8 bd a3 6f 09 be 38 ce b8 3c e6 2a 47 3e
       -0.08207955 -0.13421492 0.02255927 0.19449958
000210 b9 5c c6 3d da a9 4c be 4a 47 06 bd 9f 89 53 bd
       0.09685654 -0.19986668 -0.03278283 -0.051644918
000220 73 ff 6c bd 7f 7c 06 3c 9a c7 66 be f0 b4 f4 3b
       -0.057860803 0.008208393 -0.2253708 0.0074678585
000230 6d 8a 1a be 2b ee 6d be c9 bc 04 3f 23 8e eb 3d
       -0.15091868 -0.23235385 0.51850563 0.1150172
000240 f3 b0 80 3e 5d 65 63 bd f9 13 96 3e 01 4a 8b bd
       0.25135002 -0.05551659 0.29312113 -0.068012245
000250 e6 2c fb bd cb 5d 3f be 12 f1 5c 3f e1 27 ce bd
       -0.12264423 -0.18688123 0.86305344 -0.100662
000260 ae fc 83 be ce d5 ab be e7 f1 1e be d0 1b c9 ba
       -0.25778717 -0.33561558 -0.15521966 -0.0015343372
000270 2e af 08 3f 95 53 0d bb cd be 82 3d 5c 23 47 be
       0.53392303 -0.0021564711 0.063840486 -0.19447082
000280 a6 38 ca bd c4 1d 17 3e 2e 4c 86 bd f4 9a 87 3d
       -0.09874086 0.14757448 -0.06557499 0.06621352
000290 47 c2 48 be 68 95 29 3f 50 92 b3 be 9a 6b a4 be
       -0.19605361 0.662436 -0.35072565 -0.32113343
0002a0 ee 4c c1 be f3 ba 68 bc 43 7c 8e 3e c5 76 70 be
       -0.37754005 -0.014204728 0.2782918 -0.23482807
0002b0 31 c6 1b 3e 61 f2 3a bc 66 0f 48 3f 0b 3a 16 3f
       0.15212323 -0.011410327 0.78148496 0.58682317
0002c0 3e 48 05 3f 51 0e 3f be c6 40 b8 3d 06 e3 f0 bb
       0.5206336 -0.18657805 0.089967296 -0.007351282
0002d0 fe fe 12 be 50 48 8d 3c c8 20 eb bd 00 08 fd bd
       -0.14355084 0.017246395 -0.11480862 -0.123550415
0002e0 f9 ba 57 be 97 8b 06 bd 3f fe 65 be 3c e4 1d be
       -0.21067418 -0.032847967 -0.22460268 -0.15419096
0002f0 6e 33 76 be 55 00 3d be cc 8c fe 3d ee 05 9e 3c
       -0.24043056 -0.18457158 0.124291986 0.019289937
000300 61 45 99 be 59 1a a9 be 81 84 a3 3d fe e2 fb 3e
       -0.29935744 -0.33027914 0.079842575 0.4919662
000310 b7 f9 37 3f 13 40 39 be 90 46 25 bc b4 8f 0a 3f
       0.7186541 -0.18090849 -0.010087624 0.54125524
000320 22 f4 fe bd af cd 25 3f e2 a9 00 3e 79 a9 63 3f
       -0.124489084 0.64766973 0.12564805 0.8893047
000330 da 14 28 be e3 d6 7e be 4b 22 91 bd 7e 11 0b 3e
       -0.16414204 -0.2488666 -0.07086619 0.13580891
000340 0b d2 9a bd a6 72 08 3e c9 9c cc bd 09 d0 93 3d
       -0.07559594 0.13324985 -0.09990842 0.07217414
000350 0f 90 82 bd 0f c4 ab bc 58 18 19 3e ff f4 c0 3c
       -0.06375133 -0.020967511 0.14950693 0.023554323
000360 19 ae 6b bd e8 46 f7 3d 33 e2 1f be 0b 3b bb be
       -0.05753908 0.12074071 -0.15613632 -0.36568484
000370 d8 18 8f bd bd 2e ac 3d 5d 7f ab 3d ac 7f 13 3f
       -0.069871604 0.08407352 0.08373902 0.57616687
000380 84 96 8d be 5b 66 f4 bd 6f b1 0f be e8 eb 73 3e
       -0.27653897 -0.11933585 -0.1403253 0.2382046
000390 55 4a f7 bd 8c 61 0e 3f bd 7e 34 3f 8c d5 9e be
       -0.120747246 0.55617595 0.7050589 -0.31022298
0003a0 bf 11 e2 bc 5f 36 d9 3e 00 5e 08 be 22 57 1d 3f
       -0.027596353 0.42424294 -0.13317108 0.6146108
0003b0 24 9d 0f bd 04 b4 30 be f2 ca 13 3e 65 d4 ff bb
       -0.03506197 -0.1725617 0.14432886 -0.007807302
0003c0 60 a7 16 3f 2a 0e 29 bc c4 9d d7 3d ff a1 a4 3e
       0.58849144 -0.010318318 0.10528138 0.32154843
0003d0 21 94 7c bd 0d b0 9d bd d1 f7 a3 3d e9 07 90 be
       -0.061664704 -0.07699595 0.080062516 -0.28131035
0003e0 94 1d 02 bd e6 29 25 be 1a a7 8a 3c 0c 63 47 3f
       -0.03176649 -0.16129264 0.016925383 0.7788551
0003f0 08 a7 40 3f c8 02 a5 3e 78 41 49 3f ec 0b bd 3d
       0.7525487 0.32228684 0.7861552 0.092307895

l1.bias f4 [8]
000000 6a 1d 20 3f 4c 66 08 3f 95 4c 09 3f 53 da a8 3e
       0.6254488 0.5328109 0.5363248 0.32979068
000010 4a bb 52 3f b1 e0 28 3f 86 43 be 3e 67 07 17 3f
       0.8231703 0.6596785 0.3716089 0.5899567

l2.weight f4 [4, 8]
000000 23 11 00 3f ae 2c 82 3f d6 c4 87 3f 6e 3b 4e bf
       0.5002615 1.0169885 1.0606945 -0.8055943
000010 5d 3b 54 bf 55 23 83 bf fc 18 57 bf 82 69 8b bf
       -0.8290308 -1.0245157 -0.840225 -1.0891573
000020 b0 d6 a9 bf 49 d6 8e bf 9e 90 77 3f e6 56 61 3f
       -1.3268642 -1.1159145 0.96705043 0.8802322
000030 83 a1 71 bf f9 86 85 bf 9f 93 4e 3f e3 7a 63 3f
       -0.9438707 -1.0431815 0.80694 0.88859385
000040 16 17 90 3f ef d6 61 bf e3 0c 43 bf 06 77 86 bf
       1.1257045 -0.8821859 -0.7619154 -1.0505073
000050 c9 20 58 3f 23 e2 8b 3f 6f 5c 7f bf 9a 11 61 3f
       0.84425026 1.0928386 -0.9975042 0.8791748
000060 b6 f9 ac bf 7d cc 7c 3f fc b6 6d bf 50 7c 4b 3f
       -1.3513706 0.98749524 -0.92857337 0.7948656
000070 61 ce 76 3f eb 37 5b bf 1c c0 54 3f dc 82 91 bf
       0.9640866 -0.856322 0.83105636 -1.136806

l2.bias f4 [4]
000000 f6 1e 29 3e 54 ac 29 be fb 0a 1a be cb 13 ca be
       0.16515717 -0.16569644 -0.15043251 -0.39468226
