train/data.pth (torch, 61304 bytes, 4 tensors)

l1.weight f4 [8, 1255]
0.012857828 -0.102854766 0.03427893 -0.05021271 0.13822146 -0.14302628 -0.14189099 -0.32480645
-0.082473956 0.3086199 -0.012465705 0.3891383 -0.03402888 0.050058953 -0.07104181 0.10634755
-0.054350145 0.1923409 0.077398516 0.016094927 0.1603892 0.32474083 0.22918002 0.26223198
0.26624247 0.007917754 0.26595256 0.112593 0.08774499 0.28589994 0.0058816075 -0.017562602
0.79279166 0.28828776 0.32891983 0.20578542 0.45256278 0.12262358 0.2803499 0.12794226
0.21946524 0.42668182 0.09217004 0.22855708 0.08441249 0.22514059 0.47344583 0.33977106
0.5523725 0.052019835 0.3051471 0.6708565 -0.13660878 0.21070585 -0.37930343 -0.021403292
0.27845526 -0.016865406 0.6989611 0.4302542 -0.11453474 0.041922655 -0.08562753 0.2483125
0.048914272 -0.07882301 0.10657384 0.105527736 0.15968774 0.56792563 0.13177216 0.004418162
0.15725155 -0.019293843 0.24910599 0.124179855 0.42016166 0.08303362 0.40391332 0.102935866
0.11066186 0.14046617 0.20102237 0.16517237 0.1722523 0.2927196 -0.050976176 0.41382515
-0.031260315 0.17113256 0.2950097 -0.04096039 -0.029709442 0.4543853 -0.013023433 -0.050600596
0.14601447 0.21675402 0.08510857 0.18066743 0.0035459672 0.20862721 0.23100756 -0.10668729
0.17575815 0.28317273 0.029025221 -0.1351085 0.12880267 0.20025676 -0.04035308 0.50558525
0.48222414 0.5827904 0.38121966 0.15067017 0.49433455 -0.038087156 -0.06791619 0.19208021
0.2790514 -0.14127924 0.046836194 0.1853689 0.23444542 -0.077536 -0.15554465 0.14230607
-0.016890293 0.51465327 0.18831778 0.24967681 0.18709737 0.21791023 0.21045329 -0.025888085
0.014653781 -0.013239543 -0.044920575 0.03782914 -0.062083326 0.2121198 0.067955844 0.049604915
-0.03122836 -0.03299756 0.27474216 0.15381542 -0.014955027 0.066333875 0.21849924 0.25833967
0.0023157545 0.32940993 0.07408199 0.18638499 0.29493153 0.07973283 0.2191857 0.39375886
0.674953 0.21091245 0.28645313 -0.2833507 -0.025632262 0.18525063 0.41371575 -0.25652727
0.061070554 0.2321773 0.27517295 -0.124843545 -0.20866849 0.09510755 0.007709952 0.4090996
-0.009944017 0.03252627 0.47836956 0.109842755 0.3267829 0.46191666 0.14554588 -0.11492494
-0.12921858 0.41981357 0.22187597 0.15831977 -0.012505455 -0.04176797 0.16306059 0.20830859
0.24504179 0.030558718 -0.05421353 0.34373707 0.06626355 0.22052698 -0.05282582 -0.13335441
0.2498387 0.16593365 -0.045646362 -0.16316006 0.58336747 0.14598118 0.4009003 0.4075492
0.49602625 -0.018899338 0.55731744 0.6292096 0.17407565 0.21378653 0.3384027 -0.0018577633
0.33097368 -0.16726415 0.48440397 0.25126445 0.28196344 0.5914022 -0.031270415 -0.067525305
-0.04537291 -0.027976345 -0.07332416 0.39218846 0.025929276 0.12043203 -0.24712957 0.13240048
-0.0258673 -0.04216932 0.259455 0.57730126 0.51029426 -0.16505396 0.086841114 -0.030351954
0.2431569 0.2204149 0.30560693 -0.113007486 0.31256402 0.34122828 -0.1261363 0.20503742
0.27901444 0.4091938 -0.22271016 0.23685761 -0.025398726 0.54889023 -0.06903768 0.38145164
00000000: a4a9 523c 85a5 d2bd 1068 0c3d d8ab 4dbd
00000010: ed89 0d3e 7b75 12be df4b 11be 084d a6be
00000020: 1be8 a8bd 6d03 9e3e f53c 4cbc 233d c73e
00000030: de61 0bbd 9e0a 4d3d 5e7e 91bd bfcc d93d
00000040: 429e 5ebd 03f5 443e 1d83 9e3d 82d9 833c
00000050: 113d 243e 6e44 a63e 2bae 6a3e 4543 863e
00000060: ef50 883e 78b9 013c ef2a 883e 2997 e63d
00000070: a5b3 b33d 7a61 923e 80ba c03b 72df 8fbc
00000080: 65f4 4a3f 749a 933e 2e68 a83e 6ab9 523e
00000090: 4fb6 e73e 1222 fb3d 068a 8f3e 4c03 033e
000000a0: 7fbb 603e 0a76 da3e a5c3 bc3d de0a 6a3e
000000b0: 75e0 ac3d 418b 663e 7e67 f23e 79f6 ad3e
000000c0: 4968 0d3f c012 553d 3e3c 9c3e 40bd 2b3f
000000d0: 2ce3 0bbe 46c3 573e 0f34 c2be f555 afbc
000000e0: b091 8e3e 5229 8abc 1def 323f 474a dc3e
000000f0: 3191 eabd 17b7 2b3d 7d5d afbd a245 7e3e
00000100: 555a 483d f56d a1bd 6343 da3d ed1e d83d
00000110: 2f85 233e 9363 113f 48ef 063e 3bc6 903b
00000120: 8d06 213e 1f0e 9ebc a415 7f3e 0252 fe3d
00000130: 6e1f d73e 880d aa3d bacd ce3e 0ad0 d23d
00000140: afa2 e23d 5dd6 0f3e cfd8 4d3e f222 293e
00000150: e862 303e 58df 953e 65cc 50bd e4e0 d33e
00000160: d10a 00bd 603d 2f3e 830b 973e 15c6 27bd
00000170: 3761 f3bc 31a5 e83e 3d60 55bc 9242 4fbd
00000180: d184 153e c4f4 5d3e 674d ae3d e200 393e
00000190: 7563 683b 5fa2 553e 3f8d 6c3e de7e dabd
000001a0: f2f9 333e 04fc 903e 4dc6 ed3c e259 0abe
000001b0: d9e4 033e 1c10 4d3e 4549 25bd 096e 013f
000001c0: 15e6 f63e c031 153f 392f c33e 4849 1a3e
000001d0: 6b19 fd3e 4701 1cbd a517 8bbd adb0 443e
000001e0: d3df 8e3e 81ab 10be 4fd7 3f3d 58d1 3d3e
000001f0: 7612 703e 32cb 9ebd 1947 1fbe afb8 113e
00000200: 835d 8abc 51c0 033f 60d6 403e 47ab 7f3e
00000210: 7496 3f3e dc23 5f3e 1181 573e 4013 d4bc
00000220: 6a16 703c abea 58bc a3fe 37bd baf2 1a3d
00000230: 164b 7ebd ef35 593e 6f2c 8b3d 862e 4b3d
00000240: 9ed2 ffbc 7328 07bd 01ab 8c3e ca81 1d3e
00000250: ee05 75bc 0eda 873d 44be 5f3e 1945 843e
00000260: eac3 173b 6ba8 a83e 4cb8 973d b5db 3e3e
00000270: 4401 973e f74a a33d 3772 603e c39a c93e
00000280: b8c9 2c3f 6ff9 573e fca9 923e 5813 91be
00000290: c0fa d1bc 57b2 3d3e 8dd2 d33e 8b57 83be
000002a0: 1e25 7a3d e3bf 6d3e 78e3 8c3e f9ad ffbd
000002b0: 31ad 55be bfc7 c23d c4a3 fc3b 8175 d13e
000002c0: 3bec 22bc 443a 053d dbec f43e 3df5 e03d
000002d0: 1750 a73e 5780 ec3e fb09 153e c45d ebbd
000002e0: e051 04be cef1 d63e 7433 633e 941e 223e
000002f0: aee3 4cbc e414 2bbd 5bf9 263e d94e 553e
00000300: 3cec 7a3e 4756 fa3c 020f 5ebd 4efe af3e
00000310: 2fb5 873d d3d1 613e e35f 58bd 0f8e 08be
00000320: b7d5 7f3e 83ea 293e aef7 3abd 6e13 27be
00000330: 9257 153f 177c 153e ce42 cd3e 4aaa d03e
00000340: 27f7 fd3e c9d2 9abc 5bac 0e3f e113 213f
00000350: e340 323e dbea 5a3e 1e43 ad3e 3180 f3ba
00000360: 6275 a93e 4b47 2bbe cc03 f83e bca5 803e
00000370: 835d 903e 2266 173f 6815 00bd b54a 8abd
00000380: f2d8 39bd a62e e5bc fa2a 96bd edcc c83e
00000390: a269 d43c 11a5 f63d 890f 7dbe fe93 073e
000003a0: a9e7 d3bc bdb9 2cbd 49d7 843e 04ca 133f
000003b0: a5a2 023f e803 29be c1d9 b13d a9a4 f8bc
000003c0: 1ffe 783e 72b4 613e 8378 9c3e 7870 e7bd
000003d0: 6408 a03e 79b5 ae3e e029 01be 54f5 513e
000003e0: fbda 8e3e da81 d13e 220e 64be cd8a 723e
000003f0: fd10 d0bc 1284 0c3f a163 8dbd a14d c33e

l1.bias f4 [8]
0.27417076 0.92629707 1.0222514 0.3341924 0.27920452 0.36960593 0.32332742 0.35015756
00000000: 1c60 8c3e ce21 6d3f 22d9 823f 441b ab3e
00000010: e5f3 8e3e fd3c bd3e 2c8b a53e da47 b33e

l2.weight f4 [4, 8]
1.0090399 -1.0864874 -1.0917981 0.58358216 -0.8090056 0.95121086 -1.0303749 0.9152581
0.8930177 -1.7478528 0.7589432 -1.2552108 1.0687135 0.94132113 0.84169275 -1.2679332
-0.69466615 1.5641164 1.5525795 -1.1313391 -1.3152754 -0.41659015 -1.2490567 -0.7447913
-0.55670786 0.73095405 -1.2936845 0.72050864 0.88516796 -1.0306861 1.1949209 0.933907
00000000: 3828 813f 0512 8bbf 0ac0 8bbf a465 153f
00000010: fe1a 4fbf 8e82 733f 53e3 83bf 5b4e 6a3f
00000020: cf9c 643f a4b9 dfbf 1a4a 423f bfaa a0bf
00000030: 9bcb 883f 6cfa 703f 2d79 573f a34b a2bf
00000040: a4d5 31bf f734 c83f edba c63f b8cf 90bf
00000050: f25a a8bf 4e4b d5be 17e1 9fbf a5aa 3ebf
00000060: 6884 0ebf ce1f 3b3f 7497 a5bf 4173 383f
00000070: 5e9a 623f 86ed 83bf 2bf3 983f 8714 6f3f

l2.bias f4 [4]
-0.15503299 -0.33727744 0.37296888 -0.49404347
00000000: f8c0 1ebe a1af acbe c7f5 be3e 44f3 fcbe
