train/data.pth (torch, 50396 bytes, 8 tensors)

l1.weight f4 [8, 993]
00000000: 9325 ed3b 4f23 9b3c 1497 303d a5d2 a53c
00000010: f0b6 ca3b 7b3d bf3d fa83 19bd e24a 823f
00000020: 2174 9fbc 182f 9d3d 2940 0f3f 8ce1 c33e
00000030: a5e0 88bb 6bdc c93b 5ef0 ac3c b720 1a3e
00000040: fcad 183e d0c3 8b3e 0e47 9d3d c7b6 053e
00000050: 9d45 d8bc 1aa8 363d 16f1 703e 3e69 2e3f
00000060: 27c1 093f 087a 443e 2a53 5e3e 5cd3 2c3e
00000070: b021 cc39 503a 2ebd f502 a23c a38d 2f3f
00000080: 11d0 7dbc 4142 083d b91f a03d e669 d93e
00000090: 81c9 d13e 64d2 873e d520 ba3b 798e 443d
000000a0: 2cab 093f 8f38 9c3d a514 d83e 49d7 4d3c
000000b0: 95dc 8a3f c96f 983e 27df 133f f36e 4c3b
000000c0: 66df ab3d f8bf b63d 5dbc 0e3d edc7 09be
000000d0: 46da d7bd 18e8 203c 007f d53e 4ec8 313f
000000e0: 5dd7 9cbd 1cea 843d 4b80 9d3d 74f3 25bd
000000f0: 1c53 843d 1cfd 7d3e f0b2 133d 4831 a93d
00000100: a1ed 663d 9757 13bc 0e7a c33d ed2a 823d
00000110: 1761 0b3e 8040 15bd 1244 923e 4dc4 033d
00000120: 46b3 fc3e 27ce 853d 0f4b ef3d 2877 c23d
00000130: e7f4 4ebd 2a9d df3d 06ef eabd 4d3b 8c3c
00000140: b9b4 b2bd b109 8cbb 2d47 873d 47b4 a13c
00000150: d26f da3d 5c6c 433d 8e72 00be a640 68bd
00000160: 6fde b43c 414f efbc c57c 8c3d 6030 db3e
00000170: 3c9c 483d 0345 cb3e f8bd 9f3e 802a 743d
00000180: 1305 b13e 5f71 b23d 578a 7a3d 77eb 1f3e
00000190: 122b 193e 8c1e 353d 81e6 5d3d 6aeb a23d
000001a0: bce3 913d 6c05 653d 0683 d03c b0e2 f63c
000001b0: 7f37 853d 86fa 3f3f 7dc4 fb3c 38e1 e63d
000001c0: 1dfe eebd 9466 d53d 487e bd3d 7ba8 163d
000001d0: befc 04be f78a 483d 37ea da3e f31d 773d
000001e0: c002 59bc f33d d7bd 17a7 9ebc bd51 8c3e
000001f0: a69e ba3d 5168 01be dd1a aabd f059 de3d
00000200: a54f d43d 99fb 643e 203e 313a 5e54 273e
00000210: 8574 163c 9acf 833f f3bc f73e 9764 2b3f
00000220: 7597 913d 563f 1abd 2b19 e6bc 54dd 953d
00000230: 75ea 773e 4772 703f 1789 71bd 9260 9ebc
00000240: a10c 5f3d 3b62 53bb 3c19 f2bd f082 22be
00000250: ff76 f6bd 5855 ca3e 246c e9bd c87f 733d
00000260: 921a 863f 0cbc 703c 3094 983e 96c0 013f
00000270: ce7e 913e 5dbf 5e3c a581 f73e 1fd9 e73d
00000280: f810 d93d 6e11 c1bd 8cfc 973d e32a 573d
00000290: 7561 16bc d4c7 4b3d bd2b b9bd 910f 023d
000002a0: 8e09 20bd bc53 103f a46f 463d fd87 183d
000002b0: 27ef d13d d25b 3dbc 1a7d dd3e a39a ca3e
000002c0: 4c8e 183d 5703 0c3f a93a 073f 8e25 953b
000002d0: 9c1f 3d3d 5f4d c93e 38af cc3c 5f74 653e
000002e0: 0849 823d 17a8 cd3e 8a6b 70bd f6ca 57bd
000002f0: 752f d93e 05b4 a63d 66d6 d3bc c5b5 5c3d
00000300: 646f b93e b0f9 2b3d f49c 003d cd72 b33c
00000310: 7038 663d 89e4 8dbc ffa1 cc3c d3a6 45bc
00000320: 8cfc 8f3e 63aa de3f f660 763b b081 683d
00000330: ed3b 7e3d 0560 18be b1a9 403e 6ddf 313d
00000340: da95 3a3f a8c7 ea3e a4f2 323e 23ad a63e
00000350: a509 e53e 669e c83c b948 b13e 3a12 493c
00000360: afb9 c23e 79a9 b83c 952b ff3e b996 843f
00000370: aecf f3ba 1f76 a43e c7e3 b13c e88c fc3d
00000380: a348 71bd 0e4b 173e c784 d53d 4ba9 0e3e
00000390: cc01 77bc 4a57 b4bd de1c 983e 82fb 113e
000003a0: d967 553e 9c29 953d f87d 043e d70c 8a3b
000003b0: cfbf d83e 89b9 813d 86eb 8a3e f38c e7bd
000003c0: 4519 09bc 6064 243f 6e81 fa3e bf14 1540
000003d0: 7d05 f2bd 4b4c a9bc e4bd 3c3f b07e bbbd
000003e0: fdd7 953e 50f8 0e3f aec4 803d 66d4 86bd
000003f0: 5782 cb3e af77 273f 3bed a83d dd70 833c
0.007237145 0.018937735 0.04311283 0.020242045 0.0061863586 0.09337898 -0.03747938 1.0179102
-0.019464554 0.07674998 0.55957276 0.38258016 -0.0041771703 0.006160309 0.02111071 0.15051542
0.1491012 0.2729783 0.07679568 0.13058005 -0.026400382 0.044593908 0.23529467 0.68129337
0.5381035 0.19187176 0.21711412 0.16877502 0.0003893501 -0.04253608 0.0197768 0.68575495
-0.015491501 0.03326631 0.078185506 0.42463607 0.40974048 0.26527703 0.0056801834 0.047987435
0.5377681 0.07627975 0.4220325 0.012563535 1.0848566 0.29772785 0.5776238 0.003119406
0.08392219 0.08923334 0.034847606 -0.13455172 -0.10539679 0.00982096 0.41698456 0.69446266
-0.07658265 0.06489965 0.076904856 -0.040515378 0.06461164 0.24803585 0.03605932 0.08261353
0.056378964 -0.008993051 0.095447645 0.06355844 0.13611256 -0.036438465 0.2856756 0.03216963
0.49355525 0.06533461 0.11684238 0.094953835 -0.050526526 0.109186485 -0.11471371 0.01711812
-0.08725876 -0.0042736162 0.066053726 0.019739283 0.10665859 0.04771076 -0.12543699 -0.05670228
0.02207872 -0.029212596 0.068597354 0.42810345 0.04897712 0.3970109 0.31199622 0.059610844
0.34574184 0.0871303 0.061167087 0.15617166 0.14957836 0.044218585 0.054174904 0.07955058
0.07123515 0.055913374 0.025453102 0.03013739 0.06504726 0.74991643 0.030733341 0.11273426
-0.11669562 0.10419956 0.09252602 0.03678177 -0.12987038 0.048960652 0.42756817 0.060331296
-0.013245285 -0.10509863 -0.019366784 0.2740611 0.09112291 -0.1263745 -0.08305905 0.10856998
0.103667535 0.22361602 0.00067612715 0.16340777 0.009183054 1.029773 0.48386344 0.6695036
0.07108966 -0.037658058 -0.028088173 0.073176056 0.24210532 0.93924373 -0.05896863 -0.019333158
0.054455403 -0.0032254595 -0.11821219 -0.15870261 -0.120344155 0.39518237 -0.11397579 0.059448034
1.0476859 0.014693271 0.29800558 0.5068449 0.28417057 0.013595429 0.48341098 0.113207094
0.1059894 -0.094271526 0.07421216 0.052531134 -0.009178509 0.049751118 -0.090415455 0.031753127
-0.039071612 0.5637777 0.048446313 0.037239064 0.10250693 -0.011557536 0.43259507 0.39571103
0.03724508 0.54692596 0.52823883 0.004551596 0.046172723 0.39316842 0.024985895 0.22407673
0.06361586 0.40167305 -0.058696307 -0.052683793 0.4241902 0.08139805 -0.02585907 0.053884286
0.36217797 0.041986167 0.031399682 0.021905327 0.056206167 -0.017320888 0.02497959 -0.0120637
0.28122365 1.7395748 0.0037594414 0.056764305 0.06206887 -0.14880379 0.18814732 0.043425966
0.72884905 0.4585545 0.17475373 0.32553968 0.4473392 0.024489593 0.34625795 0.012272412
0.3803229 0.022541748 0.49837938 1.0358497 -0.0018601322 0.3212137 0.021715058 0.12331563
-0.058907162 0.14774725 0.10425716 0.13931768 -0.015076112 -0.088057116 0.29709524 0.14256099
0.20840396 0.07283327 0.12938678 0.0042129564 0.42333838 0.06334216 0.27132815 -0.11306181
-0.008367841 0.6421566 0.48926872 2.3293912 -0.11817453 -0.020666262 0.7372725 -0.09155023
0.29266348 0.55847645 0.06287514 -0.065834805 0.3974788 0.65417 0.08248373 0.016045028

l1.bias f4 [8]
00000000: 08d4 773f fa32 383f 69a1 ee3e e488 3e3f
00000010: e0f1 803f e32b 473f 8d27 f13f 15b6 1c3f
0.9680791 0.71952784 0.4660752 0.7442763 1.0073814 0.7780134 1.8840195 0.61215335

l2.weight f4 [8, 8]
00000000: fcbd 863f 2561 02bf 033b 2f3e 407f 27bf
00000010: aa22 bb3f 262b 1e40 86bf 993f 0e83 693f
00000020: 5620 a63e dc98 983f 736d ebbe 1364 a43f
00000030: 09d6 1dbf 58f2 16bf 722d 4d3f ff7a a13f
00000040: cd03 c93f 495b e8be b610 b7be 16cd 3abe
00000050: b780 b43f 7249 f63f ea59 ca3f aa14 433f
00000060: f8a9 b53f 7ba0 60be 768e 9f3f 653c 5f3e
00000070: 23e1 c73f 77b0 d83f d31b bf3f 9835 ebbe
00000080: 6fc9 bfbd ea4c c13f 245b f63f 398e 963f
00000090: 8a3b 9b3e e3d3 a2bd 0712 853f 3d1f 90bd
000000a0: ebfa b83e 6c44 afbd e32b cb3f e47d cabe
000000b0: 9fba 983f cd9a 533f 12c6 783f c88b 82bf
000000c0: b1d7 803f 5a4d 173f 7cad 85bf dac9 3d3f
000000d0: e73c 0a3f b64e 413f 126b 813f 4a69 c53f
000000e0: 5d76 ce3f 1d08 013f 6fef bcbe 7c91 083f
000000f0: aac6 533f abcd 1b3f 8d95 b93f d42d bd3f
1.0526729 -0.5092948 0.17112355 -0.65428543 1.4619954 2.4713836 1.2011573 0.912156
0.32446545 1.1921649 -0.4598194 1.284304 -0.61654717 -0.5896354 0.8014747 1.261566
1.5704285 -0.45382145 -0.35754937 -0.18242297 1.4101781 1.9241164 1.580869 0.76203406
1.4192495 -0.21936218 1.2465351 0.21800382 1.5615581 1.6928853 1.4930366 -0.45939326
-0.09364592 1.5101597 1.9246564 1.1762153 0.30318862 -0.079505704 1.0396127 -0.07037208
0.36128935 -0.08557972 1.5872768 -0.39549172 1.1931952 0.8265808 0.9717723 -1.0198908
1.0065824 0.59102404 -1.0443568 0.74136126 0.5399918 0.7551073 1.01108 1.5422757
1.6129872 0.50403005 -0.36901423 0.5334699 0.8272501 0.608607 1.4498764 1.4779611

l2.bias f4 [8]
00000000: aa87 dd3e e600 2a3f 830b 373f 1e44 ae3e
00000010: e8b8 383f a80e 043f 9880 0e3f 8f72 303f
0.43267566 0.6640762 0.7150194 0.34036344 0.72157145 0.51584864 0.5566497 0.689248

l3.weight f4 [8, 8]
00000000: 87ef 423f f4d4 f13e 4ad6 783f 1306 103e
00000010: 7902 fabd 45ee 02bf 99ac 803f ea12 833f
00000020: 952d 4b3e 839f 2ebe a052 d63d af99 dbbd
00000030: 54d5 93be 2147 9abe 47d0 f2bd a624 f2bd
00000040: 2fa3 ca3f c2a9 b6be e5ba a73f eb3f 0640
00000050: 25e0 963f fdb8 f73f bc24 8e3e 1876 213f
00000060: c995 e2be 3c4d 983f b7f6 763e 48ad 2f3f
00000070: f1fc ba3f 7f5e 163f c148 873f 8b6f 963f
00000080: 7a76 0c3f 457a 143f d430 1f3f 57f7 f4bc
00000090: 629a febe eac5 1bbf 6588 943f c176 283f
000000a0: 4361 6dbe 4570 adbe 5ff5 363e c0a5 bebd
000000b0: da26 6e3d 5431 d5be 8a5c 563e 0f78 ff3d
000000c0: 47fc 343d 8d37 74b9 7116 e33d d34e e7bd
000000d0: 1c1b 7ebe 26d8 c83d ae0e 1a3e db35 96be
000000e0: d8e7 393f 48ee 26be e5ab 6d3f b28e 4a3f
000000f0: d4c4 2fbf d3ba ca3e 97d4 7d3f a798 5b3f
0.7614674 0.47232783 0.9720198 0.14064817 -0.12207503 -0.5114482 1.0052673 1.0240147
0.19841607 -0.17053036 0.10464978 -0.10722672 -0.28873694 -0.30132392 -0.11856132 -0.118233964
1.583105 -0.3567639 1.3103911 2.0976512 1.1787153 1.9353329 0.277624 0.6307082
-0.44254902 1.189857 0.24117552 0.6862378 1.4608442 0.5873794 1.0569078 1.175279
0.5486828 0.5799907 0.6218388 -0.029903097 -0.4972716 -0.6084887 1.1604124 0.65806204
-0.23181634 -0.33874717 0.17867039 -0.09308958 0.05814252 -0.41639197 0.20933738 0.12474071
0.044185903 -0.00023290348 0.11088265 -0.112943314 -0.24815029 0.09806852 0.15044662 -0.29337963
0.7261939 -0.16301835 0.92840415 0.79123986 -0.6865971 0.3959566 0.9915251 0.85779804

l3.bias f4 [8]
00000000: 9a1b a4be a9ad cabd 0890 883e 9d5d 143f
00000010: 2537 a93c 3b6f 9bbe f56e 5ebe 7ab9 613d
-0.32052308 -0.09896404 0.26672387 0.5795534 0.020656178 -0.303583 -0.21722014 0.055108525

l4.weight f4 [4, 8]
00000000: 9975 26bf 76ae 41bd 5a67 4cbf 6475 edbf
00000010: b979 af3e 863a 3dbd 05b0 20be 4288 273e
00000020: 5035 17c0 29ab 3c3e 5d35 2839 a3bc a6bf
00000030: a152 96bf 14d8 753e da38 213d 8d85 e43d
00000040: c530 283f 1d72 71be cde5 04c0 f6d9 563d
00000050: ac2f 8e3e 117e 5abd 25f4 0c3d e755 c0be
00000060: 8547 8dbf 0533 5b3d 1589 16bf f956 e83e
00000070: af7d a9bf ab10 babd 50de 21be f59e c4bf
-0.6502319 -0.04728552 -0.798452 -1.855145 0.34272555 -0.04619839 -0.15692146 0.16360572
-2.362629 0.18424667 0.00016041608 -1.3026317 -1.1743966 0.24008209 0.03936086 0.11158285
0.65699416 -0.23578687 -2.076526 0.052453957 0.27770746 -0.053342883 0.034412522 -0.37565538
-1.1037451 0.053515453 -0.5880292 0.45378855 -1.324148 -0.090852104 -0.15807462 -1.536101

l4.bias f4 [4]
00000000: 7447 0fbf 4567 e03d 1ad1 b6be 2129 83bd
-0.55968404 0.10957197 -0.35706407 -0.06404329
