train/data.pth (torch, 44842 bytes, 6 tensors)

l1.weight f4 [8, 891]
00000000: a62e 18be f882 b3bd f3cb bd3c 45da 2dbe
00000010: f636 3abd 3d69 10ba 3573 0cbe 450e c5bc
00000020: 88f5 bfbc 7244 703e 8881 5d3e 3da2 adbc
00000030: 7a39 663e d71e 023e 5d9c 823e 9f59 813e
00000040: 6c0b a23f 899d c83e 1f6b a13d db5b babd
00000050: 5348 ba3e cf29 703d e613 063e 0bd3 fdbd
00000060: 5d15 7a3d a194 073d 57c7 883d 9022 2c3e
00000070: 578d 21bd 48ab e43d aac0 053d 1b0a 683d
00000080: f88b cb3b 99e1 b8bd c86f 0fbd de22 e93e
00000090: 5b79 483d 91d0 23bd 6d5a 0ebc 65e1 0cbe
000000a0: 862c 3a3d 5d87 babd bb41 393d 7297 7c3e
000000b0: 45cb be3e 808d 043e 462c 053e 9be3 453d
000000c0: 48cd 77bd b070 133d 4d51 07bd 8d08 de3d
000000d0: 16f7 8d3e b9f9 833d e802 033e 4a81 19bd
000000e0: 38f3 fb3d c450 003d 6dd1 ba3d 9f84 b8bd
000000f0: d799 d93d 6fd8 883e 433c e83c e57f 433d
00000100: 3383 32bd 520b 6ebd 1e72 553e 3936 6fbd
00000110: e2f5 febd 69ad 043e c9ce 7b3c 2694 87bd
00000120: 333c 003d 1537 9a3c 0721 91be ed4b b1bc
00000130: 62ce e2bd 6de7 3ebc c4d7 e4bc d985 203e
00000140: 566b d73d de26 2dbc d0bb 393d 377d 153c
00000150: b8c2 c7bc 2eef f43d 2a7c 353e 453d 08be
00000160: 6756 e73d 703e 613c cb98 a6bd 8291 74bd
00000170: 296c 123e 393d 74bd 2108 c83e e8a6 663d
00000180: 902b a33d b2d3 ed3d da23 a9bd 8c85 ea3c
00000190: e1eb 0dbb beb4 71bd 7ee6 3e3e 21e4 eebb
000001a0: c713 71bd 2ea9 6b3e 27a1 523d a9cc 8bbd
000001b0: 5036 923d 79ca f0bb 571c 9f3b 12e3 ff3c
000001c0: 7799 52bc 8def 003c 0789 993e c8bc 883e
000001d0: 63ee de3d 3f64 f33d ab3e 65be 6685 0fbd
000001e0: 8e34 083e b4e8 bc3d 299e 42be 5b06 923d
000001f0: 29ef c7bd 8377 f8bc 28b8 87be ccdc 30be
00000200: d421 8abd 96a4 ac3b 65ba f3bd 6883 3bbe
00000210: 87ca b83e 0f08 673d e8ee 1b3d 915d 2f3d
00000220: 7d1e e73c 99f9 8ebd cb83 35bd b60d 8ebd
00000230: 9434 9ebe 3e06 2cbc 2260 5abc 0f89 29bd
00000240: 0b39 543d 7fbd 173e d858 27bd 65a1 143d
00000250: 5b44 2a3e 33f7 0c3e 061a 80bd 763d 3dbe
00000260: c185 9c3d 1458 733e 6bf8 7f3e 7b17 e8bc
00000270: 104d 363e 0dcb b53d 9ad2 be3d c7a2 6f3c
00000280: b3f3 09bd f764 1ebd 10af c43c 63f9 423e
00000290: 5fa8 be3e 3435 c3bd c9f0 70bd 1b44 b0bc
000002a0: 808a e23d 75c9 b33d c1e8 823d 3100 52be
000002b0: 6f2a 6cbd 34f6 97bb d353 ed3d e619 bd3e
000002c0: 2833 95be 28bc f9bd 3b79 8b3d 0076 47bd
000002d0: ff5b 07bc 814d 1d3e 1505 90bd baed a1be
000002e0: 6207 15bc aa7f 5a3e ff60 103d 1ddd 6abd
000002f0: 157c 753e 4465 08bd aa9f 1f3d 74c2 1ebe
00000300: c551 ad3d d034 863c 9947 da3e cd80 5c3d
00000310: 984b c5bb 0523 28bd 3141 e9bb b8c7 dc3d
00000320: 0a50 4fbd e46a fcbc 73aa 21bd a44d ddbd
00000330: 02b8 8a3c 5bb4 80bd 6929 1cbd 8a9f cb3c
00000340: 7c44 e5bd 88c6 d33c 9fb9 583e 5701 11bd
00000350: dfa9 853b ab11 e53d d337 1a3d 760f b63d
00000360: ea60 913e 77af 2dbe 8b89 abbb 3755 353d
00000370: d32d 1cbd 8e73 9d3e 8968 75b8 7a4c 0a3e
00000380: de99 6abd 9196 90bd f549 1b3d a06f 3f3d
00000390: 7e8c 71bd 86a7 b0bc 8a31 ca3e 6d10 063e
000003a0: 6bc5 ed3d ffde 25be 8c35 b8bc c179 5abe
000003b0: 9024 633c 0251 c23e d596 edbc ba06 0e3d
000003c0: fe3d ecbd 123c bebd f81a 5cbd cd60 cfbd
000003d0: 2531 ab3c dc9c fd3c 580b 003e a398 babc
000003e0: 82b7 5f3d 6e06 2f3d f37b fbbd 6440 0ebe
000003f0: c303 87bc 0ac8 523d 6a1d fa3d 3ba5 5c3d
-0.14861545 -0.08765215 0.02316854 -0.16977794 -0.04546257 -0.0005508846 -0.13715823 -0.024054656
-0.023432508 0.2346361 0.21631444 -0.021195525 0.22482863 0.12707077 0.2550992 0.25263688
1.2659736 0.3918269 0.0788176 -0.09099551 0.36383304 0.05863362 0.13093528 -0.12393769
0.06105553 0.033100728 0.06678646 0.1681006 -0.039441433 0.11165482 0.032654442 0.056650262
0.006211754 -0.09027404 -0.035018712 0.45534414 0.04894386 -0.039993826 -0.008688551 -0.13757856
0.045452617 -0.0910785 0.0452287 0.24667147 0.37264457 0.12944603 0.1300517 0.048312765
-0.060498506 0.03599614 -0.03303652 0.10841475 0.27727574 0.06444115 0.12794077 -0.037476815
0.1230225 0.031327024 0.09121976 -0.090096705 0.10625046 0.26727626 0.028349048 0.04772939
-0.043582153 -0.058116265 0.20844314 -0.05840132 -0.12449242 0.12956776 0.015369126 -0.06620054
0.03130741 0.018825093 -0.2834551 -0.02164265 -0.11074521 -0.011651856 -0.027934916 0.15676059
0.105185196 -0.010568349 0.045345128 0.009124092 -0.024384841 0.119596824 0.17723146 -0.13304622
0.11295777 0.013747796 -0.08134612 -0.05970908 0.14299072 -0.0596287 0.39068702 0.056311518
0.07967293 0.11612643 -0.08258791 0.028628133 -0.0021655487 -0.05901026 0.18642613 -0.0072903787
-0.05885675 0.23013756 0.051423218 -0.06826145 0.071392655 -0.0073483554 0.0048556733 0.031236205
-0.012853972 0.007869613 0.29987356 0.2670653 0.108853124 0.11884355 -0.22387187 -0.035039328
0.13301298 0.09224072 -0.19005646 0.071301185 -0.09762413 -0.030330425 -0.26507688 -0.17271727
-0.067447335 0.0052686436 -0.11900786 -0.18311846 0.36092016 0.05640417 0.038069636 0.04281384
0.02821278 -0.06981201 -0.04431514 -0.06936209 -0.3089949 -0.010499535 -0.013328584 -0.041390475
0.051812213 0.14818381 -0.040856212 0.03628673 0.16627638 0.13766174 -0.062549636 -0.18480477
0.07642699 0.23764068 0.24997108 -0.028331509 0.17802835 0.088766195 0.09317513 0.0146262115
-0.033679675 -0.038670506 0.024009258 0.19040446 0.37237832 -0.09531632 -0.05882338 -0.02151685
0.11061573 0.08778659 0.063920505 -0.20507886 -0.057657655 -0.004637504 0.11588254 0.3693382
-0.29140592 -0.12194091 0.06810232 -0.048696518 -0.00826168 0.15361597 -0.07032219 -0.31626683
-0.0090959985 0.21337762 0.035248753 -0.057339776 0.23973115 -0.0332997 0.038970627 -0.15503865
0.08462862 0.016382605 0.4263275 0.05383377 -0.0060209744 -0.041049022 -0.007118367 0.10780281
-0.05061344 -0.030812688 -0.039469194 -0.108058244 0.016933445 -0.062844 -0.03812543 0.024856348
-0.11194703 0.025851503 0.21164559 -0.03540167 0.004079088 0.111850105 0.037650894 0.08889668
0.28394252 -0.16961466 -0.0052349023 0.04427072 -0.03812964 0.30752224 -5.8509908e-05 0.13505736
-0.057275645 -0.07059968 0.037912328 0.046737313 -0.058971874 -0.021564256 0.3949092 0.13092203
0.1160992 -0.16198348 -0.02248647 -0.21335508 0.013863698 0.3795243 -0.029002586 0.034674384
-0.115352616 -0.09288801 -0.053736657 -0.10125885 0.020897457 0.030958585 0.12504327 -0.022777861
0.054618366 0.04273074 -0.12279501 -0.1389175 -0.016481286 0.051460303 0.122126415 0.053868514

l1.bias f4 [8]
00000000: 98af 0440 c3b1 fa3f 386e 9c3f 6a27 e43f
00000010: edf3 3040 b05c 3240 badf 0840 3971 e13f
2.0732174 1.9585499 1.2221136 1.7824528 2.764888 2.7869072 2.1386552 1.7612678

l2.weight f4 [8, 8]
00000000: 2b4c d23f 3fb8 203e d606 cc3f 9329 fdbe
00000010: 5b2d be3f 1157 c43f 9d95 37bf 4a8e 74be
00000020: f034 ccbd 15b8 bd3f b083 71bf 5b73 dd3f
00000030: 8164 bf3f 869c 913f c3c5 0340 2627 983f
00000040: cf31 aa3f 1673 0840 9fbe 623f 6fc6 103e
00000050: a96b d03f d4c8 8a3f ea9f 833e d9bb fe3f
00000060: b188 2c3e 642a 7fbf f1bb ab3e b406 dd3f
00000070: 9b69 d73f c290 0740 fdc9 b83f ec96 92bf
00000080: c9d3 d03f 8ab3 423f 287d d23f 8172 0dbe
00000090: cf3c 0740 db36 0d40 6d71 1cbc 394d f23d
000000a0: 326f 963e 9e1c b83d 8f3b a1be 1d18 973e
000000b0: fd81 413e bc77 31be 495b bbbe 0c2a 8bbe
000000c0: 8d53 3c40 6c61 e63f cae5 fc3f bcc1 f43f
000000d0: 1cc6 943f 9982 8a3f 2746 4140 c8ad fb3f
000000e0: 0772 32be 43c4 de3f 8fb5 6dbf 28d2 9e3f
000000f0: 309f d23f 2a9f e63f f0ca 973f 8855 eb3f
1.6429495 0.15695284 1.5939586 -0.4944578 1.4857591 1.533907 -0.71712667 -0.23882404
-0.099710345 1.4821802 -0.94341564 1.7300829 1.4952546 1.1375892 2.0589454 1.1886947
1.329645 2.1320243 0.88572115 0.14138196 1.6282855 1.0842538 0.25707942 1.9901077
0.16849019 -0.9967406 0.33541825 1.7267671 1.6829103 2.1182103 1.4436642 -1.1452308
1.6314632 0.76055205 1.6444445 -0.13813211 2.1130865 2.206473 -0.009548527 0.11831135
0.2938171 0.08989833 -0.31490752 0.29510584 0.18897243 -0.17330831 -0.36593083 -0.27180517
2.9425995 1.7998481 1.9757626 1.9121623 1.1622958 1.0821105 3.0199068 1.9662409
-0.1742631 1.7403644 -0.9285516 1.2407885 1.645483 1.8017323 1.1858807 1.8385477

l2.bias f4 [8]
00000000: a852 593f 031c e93e 4c4c b03e 5526 6f3f
00000010: bcfe 513f a1fc 6abe 87e1 703f 397e 843d
0.8489175 0.45529184 0.3443321 0.93417865 0.8202932 -0.22947933 0.9409413 0.064693876

l3.weight f4 [4, 8]
00000000: a7f2 afbf 9f9f 5bbf 1366 3cc0 8947 c03b
00000010: aafe 1ac0 dacb 913e d3cd 9dbf 4272 1ec0
00000020: 68f1 26bf 8176 21c0 be8c ffbe e705 39c0
00000030: ac75 97bf c857 e6bd a9cf b7bf 0ac2 23c0
00000040: 5c60 023e c5db 04c0 4b09 bfbf 177b 273e
00000050: 25ed efbe 7d69 8abe 6013 69c0 0a79 dfbf
00000060: 11c1 03c0 9c3d 14bf 010b 98bf b0ea c0bf
00000070: d445 03c0 9439 97bd e003 53c0 cb51 6f3d
-1.3745927 -0.8579044 -2.94373 0.0058679027 -2.4217935 0.2847584 -1.2328438 -2.4757237
-0.65212107 -2.522858 -0.49912065 -2.8909853 -1.1832786 -0.11247212 -1.4360248 -2.5587182
0.1273207 -2.0759137 -1.4924711 0.16355549 -0.46860614 -0.27033606 -3.6418076 -1.7458813
-2.0586588 -0.5790651 -1.1878358 -1.5071621 -2.051137 -0.07384029 -3.2971115 0.058427613

l3.bias f4 [4]
00000000: ffe1 a03e 2970 b3be 7643 41be 1081 e9be
0.3142242 -0.3504651 -0.1887339 -0.4560628
